AI/candidates/LSTM_DNN_02/model_231103_02.tflite (tflite, 80312 bytes, 7 tensors)

model/lstm/Read_2/ReadVariableOp f4 [256]
000000 4f bc 82 be 03 57 8e 3f b7 8f 8c 3e 43 19 6b 3f
       -0.25534293 1.1120304 0.27453396 0.9183542
000010 11 c6 59 3d c1 7d c0 3f 68 03 07 3f 6b c1 a9 3f
       0.053167406 1.5038377 0.5273957 1.3262151
000020 55 a8 98 3d e5 ac 78 3f e3 95 99 3f ee d1 43 3f
       0.07453982 0.97138816 1.1998867 0.764922
000030 c7 dc 55 3e 8d a4 90 3f 8c 2d 02 3f 09 e1 9f 3f
       0.20885001 1.1300217 0.5085075 1.249055
000040 1f cb 4d bd 5d 4f 24 bd 56 43 3b 3f b4 7e 3d 3f
       -0.05024254 -0.04011475 0.7314962 0.7402146
000050 f5 45 01 3f ba ab be 3e e0 1a 30 3e ca c3 8a 3f
       0.5049737 0.37240392 0.17197752 1.0841
000060 9e 46 b4 bd 7a 9e 7f bc 54 42 1c be c0 59 f7 bc
       -0.08802532 -0.015601749 -0.15259677 -0.030194163
000070 00 c2 e1 3d 0b e7 be 3f 00 a8 7e 3e ce 18 8e 3f
       0.11023331 1.4914259 0.24868774 1.110132
000080 d3 82 f7 3e 84 f2 e2 3e 0a 89 15 3f d2 54 e3 3f
       0.48341998 0.4432565 0.5841223 1.776026
000090 4f 77 a4 3e 2a 92 80 3e 18 b8 21 3f 3a 0a 61 3f
       0.32122275 0.25111514 0.6317153 0.8790623
0000a0 6c f9 8b 3f b4 3f 41 3f 47 30 53 3e 57 28 05 3f
       1.0935493 0.7548783 0.20623885 0.5201468
0000b0 62 23 3f be b4 94 8f 3f 40 19 b1 3e b9 45 25 be
       -0.18665841 1.1217256 0.34589577 -0.16139878
0000c0 64 54 4a 3f 78 e7 82 3e ec b3 48 3f c9 8a 86 3f
       0.7903502 0.25567222 0.7839954 1.0511104
0000d0 01 b2 c8 3f e7 9d cf 3f 75 36 b0 3e da 77 51 3f
       1.5679322 1.6220063 0.34416547 0.81823504
0000e0 a1 df 6a 3f 30 c9 54 3e fe 4b b9 3f ea 8c a5 3e
       0.9174748 0.20779872 1.4476316 0.3233407
0000f0 0e 79 c8 3e fb 36 8d 3e b7 4a 75 3f 7e b1 32 3e
       0.39154857 0.2758101 0.9581713 0.1745052
000100 ff 24 89 3f d1 b9 a5 3f 64 61 99 3f a1 53 b7 3f
       1.0714415 1.2947332 1.1982846 1.4322397
000110 5d 31 33 3f e7 e7 8f 3f 19 02 7e 3f 1d b7 97 3f
       0.699972 1.1242646 0.9922195 1.1852757
000120 54 52 93 3f 06 0a 83 3f 17 19 ad 3f ad 9f 75 3f
       1.15095 1.0237434 1.3523282 0.9594677
000130 16 2b 6e 3f 85 42 65 3f e3 5d 5c 3f 02 19 b2 3f
       0.93034494 0.89554626 0.8608076 1.3913882
000140 77 60 6a 3f 0e 06 6a 3f 08 a2 a2 3f 6e ab 9c 3f
       0.91553444 0.9141549 1.2705698 1.2239816
000150 a5 26 a0 3f df 4e 67 3f 12 56 5f 3f 0d 6d 8d 3f
       1.2511793 0.9035472 0.8724071 1.1048905
000160 0c e2 6d 3f ce de 94 3f d5 36 8b 3f 48 30 5e 3f
       0.92923045 1.1630495 1.0876108 0.8679242
000170 b9 26 8e 3f 93 9f b4 3f d3 db 98 3f 66 63 87 3f
       1.1105567 1.4111198 1.1942085 1.0577209
000180 e6 c2 55 3f 97 07 8a 3f 20 cd a9 3f 99 38 b8 3f
       0.83500516 1.0783566 1.3265724 1.4392272
000190 a1 d4 72 3f 30 60 8d 3f 53 c9 78 3f 5d 99 87 3f
       0.94855696 1.1044979 0.97182196 1.0593678
0001a0 0f c0 90 3f 9b cc a2 3f 08 4c 95 3f ca 5b 6d 3f
       1.1308612 1.2718691 1.1663828 0.92718184
0001b0 16 55 69 3f 95 02 7d 3f 7c 1d 66 3f ff d2 a9 3f
       0.91145456 0.98832065 0.8988874 1.3267516
0001c0 77 44 97 3f a4 57 83 3f 8d 5d 43 3f f9 99 8e 3f
       1.1817769 1.0261121 0.7631462 1.1140739
0001d0 70 94 8d 3f 52 59 9b 3f 2d bc 83 3f 4c 6e a2 3f
       1.1060925 1.2136633 1.0291802 1.268991
0001e0 1f a5 b8 3f 27 da 84 3f 09 34 8a 3f 50 62 85 3f
       1.4425391 1.0379075 1.079713 1.0420628
0001f0 f6 97 8b 3f 2c 33 86 3f c9 b4 84 3f df eb 8e 3f
       1.090575 1.0484366 1.0367671 1.1165732
000200 85 2e 45 be 2d b7 66 bf fb d5 0e 3f 2f 9f 41 bf
       -0.19256027 -0.90123254 0.5579526 -0.7563352
000210 96 54 ee be c6 c3 b3 3f 91 a1 8b 3f e9 8f c2 bf
       -0.4654891 1.404412 1.0908681 -1.5200168
000220 53 3c c5 3e 35 98 c7 be f5 32 b5 bf cc 22 9e 3f
       0.38522586 -0.38983312 -1.4156176 1.2354369
000230 c6 93 84 be d8 da 36 3f c0 5a 26 bf 0c e8 8b bf
       -0.25893992 0.7142768 -0.64982224 -1.093019
000240 d8 3c 30 bf e3 ba f0 3d cd 90 90 3f 24 48 08 3f
       -0.6884284 0.11754396 1.129419 0.5323508
000250 00 b2 b4 3e a6 bd 18 be 52 8c 9b be a5 77 80 bf
       0.35292053 -0.14916095 -0.30380493 -1.0036513
000260 e2 42 1a be fd 47 ef be 26 08 c6 3e 9a bd 1f 3e
       -0.15064576 -0.4673461 0.38678092 0.15599671
000270 bf f3 41 be c4 44 9f bf f1 9d cc be 41 08 0a bf
       -0.18940638 -1.2442861 -0.3996425 -0.53918844
000280 bb 67 2c 3f 10 2b 04 3f ca f0 86 bf 0d db d1 3f
       0.6734578 0.5162821 -1.0542233 1.6394974
000290 c0 21 36 bf a9 1c b2 3e e6 35 2c 3f 55 e9 84 3f
       -0.7114525 0.3478749 0.6726974 1.0383707
0002a0 65 47 a8 3f 4b 93 e6 be c7 4c 5c 3e 35 c5 e5 3a
       1.3146788 -0.4503425 0.21513663 0.0017530086
0002b0 ef 40 92 3e 0a 96 05 bf e6 ac 86 be aa 34 3a be
       0.28565165 -0.52182066 -0.26303786 -0.18184152
0002c0 5d 1c 5a 3f a0 92 9b 3d 79 b9 3b 3f 74 57 2d 3f
       0.8519953 0.07596326 0.73329884 0.6771157
0002d0 78 6c c9 bf 09 a8 92 3f 67 62 e9 3e b6 5d 05 3f
       -1.5736227 1.145753 0.45582888 0.52096117
0002e0 87 c2 5e 3f 8f 75 0f bf de 7d 89 bf 7e ec 2a bf
       0.87015575 -0.56038755 -1.0741537 -0.6676711
0002f0 7d 6b cb 3e 87 45 bd 3e 2c fc 89 bf b8 46 d3 3e
       0.39730445 0.36967108 -1.0780082 0.41264892
000300 b5 29 8b bd 52 91 c7 3f f9 9d 0e 3f fa d8 4c 3f
       -0.06795064 1.5591223 0.557098 0.8001858
000310 00 07 6f be 71 ae 42 3f 61 f7 d8 3f e7 fc 64 3f
       -0.23342514 0.76047426 1.6950494 0.894484
000320 0e ee 9d 3e 26 9f 21 3f 67 22 e0 3f f2 34 ea 3f
       0.30845684 0.63133466 1.7510499 1.8297408
000330 6c 70 32 bf 87 fc 80 3e fd 9c 1b be 2c 5f b3 3f
       -0.6970279 0.25192663 -0.15196605 1.4013419
000340 aa 97 a3 3f d3 56 a9 3e f1 52 b9 3f b4 65 52 3f
       1.2780659 0.33074054 1.4478437 0.82186437
000350 0e fe 1d 3f 41 46 5a bd 18 ca 3b bf 69 ff 6a 3f
       0.6171578 -0.053289656 -0.73355246 0.91795975
000360 4d 13 d5 3e 3a dc 09 3e 9a d8 5c 3e 61 dc ea bd
       0.41616288 0.13462916 0.21567002 -0.11467815
000370 1c da e2 be f4 72 c8 3f 98 65 ce 3e 6e 65 24 3f
       -0.4430703 1.5660081 0.40311885 0.6421727
000380 53 7c 5a 3f fa b2 6a 3f 19 99 94 3f 65 e4 a3 3f
       0.85345954 0.91679347 1.1609222 1.2804075
000390 2a 0a 6d bc 37 a9 46 3f fc 74 3e 3f 05 c3 43 3f
       -0.014467755 0.7760195 0.74397254 0.7646945
0003a0 8f b1 b9 3f 1e 6d 35 3f 9c 8d 83 3e 6e 0f b6 bd
       1.4507312 0.70869625 0.25693977 -0.08889662
0003b0 bf ca 06 be 65 96 c8 3e ad 11 4f bf 4a e8 64 bf
       -0.13163279 0.39177242 -0.80886346 -0.89416945
0003c0 50 37 06 3f 56 9b 52 3c 5b de 16 3f b0 0d c6 3e
       0.5242815 0.012854418 0.5893304 0.38682318
0003d0 c9 01 d9 3f a2 77 a4 3f 0b 8b 2a 3e 30 e3 62 3f
       1.695367 1.2849009 0.16654603 0.8862791
0003e0 be b9 c6 3f ca 23 09 3e 16 dd 53 3e ff 59 4d 3f
       1.5525434 0.13392559 0.20689806 0.8021545
0003f0 32 cb af 3e 95 25 e3 3e 46 9f 54 3f c4 58 46 3f
       0.34334713 0.4436461 0.8305553 0.77479196

model/dense/MatMul1 f4 [1, 64]
000000 ba 7b 40 bf bd 71 85 bf 32 1d 47 3f 1f 61 cf be
       -0.7518879 -1.0425335 0.77778924 -0.40503785
000010 ab 65 2a c0 8d 52 79 40 25 d6 a1 3e 14 3c f7 be
       -2.6624553 3.8956635 0.31608692 -0.48288023
000020 17 17 c3 40 11 82 93 bf 81 4e e3 be bc 67 3d 3e
       6.0965686 -1.1524068 -0.4439583 0.18496603
000030 a9 e7 b0 c0 31 15 12 3f e9 82 2a bf 5f 42 aa bf
       -5.528279 0.57063586 -0.66606003 -1.3301505
000040 7c f4 8f bf 4f b9 95 3f d7 f2 a3 3f 28 89 0f 3f
       -1.1246486 1.1697177 1.2808484 0.5606866
000050 38 b1 7c 3f c2 d5 d6 be e6 fa d4 c0 74 a6 7b bf
       0.98707914 -0.4195996 -6.6556273 -0.9830086
000060 d4 81 4c bf f3 0f a6 be a5 43 97 3f 38 a5 a0 c0
       -0.798856 -0.32434043 1.1817518 -5.0201683
000070 4a 64 97 c0 ce 21 02 bf 4b e2 a9 bf e0 59 6f bf
       -4.7309923 -0.5083283 -1.3272184 -0.93496513
000080 b3 62 d2 3e 1f fe 8a 40 05 ef ff bf f3 62 18 40
       0.41090927 4.3435206 -1.9994818 2.3810394
000090 c8 9c 82 bf db 8b 21 40 33 e4 ab 3f 8b 07 b3 3f
       -1.0204096 2.524161 1.3429016 1.3986677
0000a0 72 2d 0d 3f db a0 e6 be db 79 0c 3f 9b 0e 11 c0
       0.5514747 -0.45044598 0.54873437 -2.2665164
0000b0 48 73 8e 3f 74 58 17 c0 7d b4 92 c0 1b 96 f1 40
       1.1128931 -2.3647738 -4.5845323 7.5495734
0000c0 0e d3 81 3f 7b 58 ab bf 47 6f 61 40 fc 57 47 3f
       1.0142534 -1.3386377 3.5224168 0.7786863
0000d0 db fa a2 bf 24 1a 0c 3f 40 fe 96 3f 34 75 4d 3f
       -1.2732805 0.5472739 1.1796341 0.8025696
0000e0 34 93 75 3f 0f 31 a4 bf e9 c5 0d bf 96 47 52 bf
       0.9592774 -1.2827471 -0.5538011 -0.8214048
0000f0 56 df 30 3e 17 b6 d9 3f f0 bd 86 bf 87 77 10 3f
       0.17272696 1.7008694 -1.0526714 0.56432384

model/dense_1/MatMul f4 [64, 4]
000000 f7 c0 04 3e f5 67 22 bd 52 e4 ca 3e 62 65 9e bf
       0.12964235 -0.039649922 0.3962732 -1.237469
000010 a7 34 04 bf f0 a8 67 3a 29 c4 93 be da 36 e3 3f
       -0.5164284 0.00088371243 -0.28860596 1.7751114
000020 64 03 00 3e e4 bc 2a be f8 e2 e3 3d 4f bd ce bf
       0.12501293 -0.16673619 0.11127275 -1.6151522
000030 e2 6a e4 3b 10 84 0c 3e dd a0 a0 bd df 75 ae bf
       0.0069707492 0.13722253 -0.07843182 -1.3629721
000040 03 ff 31 be b3 35 4d 3e 2f 3a 09 3e df 17 ca 3f
       -0.17382436 0.20040016 0.13401102 1.5788535
000050 b5 b8 59 be ff 85 81 bd 15 80 85 3e bf 0c d2 3f
       -0.21261866 -0.06324386 0.2607428 1.641014
000060 13 53 7b 3d 82 2e 09 3e 9d 0e 80 be fb 74 c0 bf
       0.061358523 0.13396648 -0.2501115 -1.50357
000070 aa 21 f4 be d4 f7 32 be a1 04 56 3e ce c3 da 3f
       -0.47681934 -0.17477351 0.20900203 1.7091005
000080 f3 07 3c 3e 22 34 b8 3a 7e cf 7c be b1 ba dc bf
       0.18362407 0.0014053623 -0.24688527 -1.7244474
000090 02 9b d0 bc 59 64 f7 3a 29 34 50 be ec b8 c6 bf
       -0.025464538 0.001887451 -0.20332398 -1.5525184
0000a0 b0 5e ef 3e 88 09 d8 b9 e9 c3 cb 3d 2e 19 f9 bf
       0.46751928 -0.00041205832 0.09949476 -1.9460809
0000b0 ec da 9d 3d ef 29 2b 3e 78 de 96 3e 5d b3 c9 bf
       0.07707772 0.16715215 0.29466605 -1.5757862
0000c0 fd 1f 4e 3e f6 b3 4f 3e c0 15 31 3e 94 1f b2 bf
       0.2012939 0.20283493 0.17293453 -1.3915887
0000d0 66 22 d4 bd 3d cb 83 ba 64 83 21 be 02 37 b6 3f
       -0.103581235 -0.0010055077 -0.15772778 1.4235537
0000e0 fc e8 a7 be 4f 75 3a 3d f4 64 d4 bc da ae 9f 3f
       -0.3279494 0.04552203 -0.025927044 1.2475235
0000f0 ee 32 2b be 39 b0 1a be 2a 2c 8e 3e 97 d6 c6 3f
       -0.16718647 -0.15106286 0.2776807 1.5534238
000100 0a 2e af be a7 5c 74 39 aa 78 d4 bc b6 00 bf 3f
       -0.34214813 0.00023304169 -0.025936443 1.4922092
000110 a5 80 a9 be ba d0 81 bd 0b 80 2b 3b 9c a2 b8 3f
       -0.3310596 -0.063386396 0.002616885 1.4424624
000120 e9 c7 99 bd cf 68 6e 3e 97 f2 98 3e 6b df dd bf
       -0.07508833 0.23282169 0.2987258 -1.7333807
000130 f3 e6 18 3e dc 96 d2 3d cf 13 38 be 66 4b b8 bf
       0.1493185 0.102826804 -0.17976306 -1.439801
000140 65 25 9e 3d c6 e4 7d bd c5 1c 54 be 0a 4a b0 3f
       0.07721976 -0.061985753 -0.207141 1.3772595
000150 bb 79 3d be 68 bd d5 b9 6b fa c5 be 78 91 a8 3f
       -0.18503468 -0.00040767645 -0.38667616 1.3169394
000160 07 db 9f 3e fb d1 05 be 88 75 4a 3e 23 82 c6 bf
       0.31221792 -0.13068382 0.19771397 -1.5508465
000170 c9 6b bc bd dd f0 4a 3e 1c 62 80 be 97 94 a1 3f
       -0.09200246 0.19818445 -0.25074852 1.2623471
000180 47 6c 8e be fa a6 b0 b8 ae 68 b3 be b6 de bb 3f
       -0.27816984 -8.423436e-05 -0.35040802 1.4677341
000190 77 8d 1a bd a2 a2 8a 3a 83 aa 0a be 37 28 40 bf
       -0.037732568 0.0010577033 -0.13541608 -0.75061363
0001a0 37 98 05 3e 4e 08 ca bd 9b ad c5 3e ad f9 c7 bf
       0.13046347 -0.09864865 0.38609013 -1.562307
0001b0 5e e1 9e 3e ec 4d 0c 3e 29 5e 56 3d 1c e9 a2 bf
       0.31031317 0.137016 0.052335892 -1.2727389
0001c0 51 b5 17 be fc c3 ac b9 01 a0 ff be 9d e9 89 3f
       -0.1481526 -0.00032952416 -0.4992676 1.0774418
0001d0 30 8f af bd e7 0c ae ba f1 f8 1b 3e 81 aa cd 3f
       -0.08572233 -0.0013278992 0.15231682 1.6067659
0001e0 a5 5f f3 be 38 dc 80 39 d7 82 1f be 86 31 09 40
       -0.47533908 0.00024578138 -0.15577255 2.1436477
0001f0 ae 80 5e 3e fd 7d 1d 3e 4a e0 2e be ce c3 dc bf
       0.21728775 0.15380092 -0.17077747 -1.7247255
000200 a4 b3 8e be cc a8 3d 3e 42 f0 a3 be d8 7b c5 3f
       -0.2787143 0.18521422 -0.3201924 1.5428419
000210 a3 45 e6 3e 3e 7a 42 b8 d6 bc e7 3e 4a 77 0d c0
       0.44975004 -4.636705e-05 0.45261258 -2.2104058
000220 ba b4 66 3d 83 ad 44 3a 94 ff 99 3e 7c ca 79 bf
       0.056324698 0.0007502662 0.30077803 -0.9757459
000230 9f 0f a2 3e 2c 48 b0 3d 85 04 8a be 7e b3 eb bf
       0.31652543 0.08607516 -0.26956573 -1.8414152
000240 db 7a 3e be c2 dd 7a be b1 1b 78 3e 81 37 9e 3f
       -0.18601553 -0.24498656 0.24229313 1.2360688
000250 9a ed c3 be 51 3c 17 be 2b de 22 3e a7 2e a2 3f
       -0.38267213 -0.14769103 0.15905063 1.2670487
000260 81 d1 ae 3e be 8c 1e be b3 30 ed 3d 8c 4a b6 bf
       0.34144214 -0.15483376 0.11581554 -1.42415
000270 70 fc 0b bf 3a 6b 11 3a 54 bf c7 be 75 ac 0e 40
       -0.54682064 0.0005547289 -0.3901316 2.229276
000280 0b eb a3 3d d0 d8 76 be 86 e9 01 3d 68 82 a2 3f
       0.08003815 -0.24106145 0.031716846 1.2696047
000290 3f 9e cd 3e 62 76 00 be a0 51 20 3d 60 1b d1 bf
       0.40159795 -0.1254516 0.039140344 -1.6336479
0002a0 01 19 3d bd aa 54 ab ba d5 85 0c bc a4 8a b3 3f
       -0.046166424 -0.0013071497 -0.00857683 1.4026685
0002b0 d3 be cb 3e 80 cf a8 b6 89 a3 ff 3d 19 b1 fc bf
       0.39794025 -5.0309463e-06 0.12482364 -1.9741546
0002c0 2b cc 05 bd 1e 1f 8f 3d d1 54 4f 3d 44 0c b7 bf
       -0.032665413 0.06988357 0.050617997 -1.4300618
0002d0 34 3f 16 be 18 a1 5c 3e 8a b1 43 3e 49 76 c3 3f
       -0.14672548 0.21545827 0.19110695 1.5270473
0002e0 b5 ee b7 3e 39 3e 0a be 73 f1 3f bd 77 0e 8e bf
       0.35924307 -0.13500299 -0.046861123 -1.1098164
0002f0 99 7c cc 3d 7e 80 90 3d 97 93 8f be 7a 8f b1 bf
       0.099847026 0.07055758 -0.2804229 -1.387191
000300 c4 41 a5 be 9b ca 96 b9 17 32 99 3e 1f 2f eb 3f
       -0.32276738 -0.00028761182 0.29921028 1.8373755
000310 79 bd 82 3e 15 6c 1e 39 e1 ed 9e 3e e6 47 b6 bf
       0.2553518 0.00015108318 0.31040862 -1.4240692
000320 3d 5f 56 bd 79 4d 16 3b a3 b3 29 be 76 50 e4 bf
       -0.05233692 0.002293436 -0.16572432 -1.7837055
000330 be 4b f3 3e 37 df 5f ba df b9 ed 3e 72 f0 cd bf
       0.47518724 -0.00085400365 0.4643087 -1.6089003
000340 4b 08 86 be 02 2e 05 ba 58 54 7a be d1 43 e1 3f
       -0.26178202 -0.0005080403 -0.24446237 1.7598821
000350 3f eb 0c 3f c2 42 2b be 07 1a 85 3e 34 d5 9d bf
       0.5504646 -0.16724685 0.2599642 -1.233069
000360 3c c0 8d be 57 ef 39 b9 7f da 90 3d 5d 0c c3 3f
       -0.27685726 -0.00017732136 0.07072925 1.5238148
000370 fb c8 f5 3e 2e f9 2d b9 66 03 9b 3e a3 bc 0f c0
       0.48004898 -0.00016591392 0.3027603 -2.2458885
000380 8e 86 d7 3e de 3f 4d be ba 43 1f be 10 f7 ba bf
       0.42094845 -0.20043895 -0.1555318 -1.4606647
000390 9c 16 60 bd bf 6b c3 3c d0 4c 04 bc 01 8d d5 3f
       -0.054709062 0.023855088 -0.008074954 1.6683656
0003a0 6b 54 1b 3f fb 52 cc ba a2 d6 1d 3e a1 93 ce bf
       0.60675687 -0.0015588695 0.15413907 -1.6138803
0003b0 2f 77 ad 3e 0e 24 76 be 5a c8 b4 3e c6 7f b6 bf
       0.33879992 -0.24037191 0.35309106 -1.4257743
0003c0 71 50 3b be 9c 90 1c ba f5 37 85 be 8d 21 bb 3f
       -0.18292405 -0.0005972476 -0.26019254 1.4619614
0003d0 93 24 04 be 22 62 a4 b9 26 e1 1d bf dc f4 79 3f
       -0.12904577 -0.00031353632 -0.61671674 0.9763925
0003e0 de ac a2 3d b2 e4 ec 39 a4 b4 17 b7 96 ad 51 bf
       0.07943128 0.0004518382 -9.04236e-06 -0.81905496
0003f0 22 7e 07 3e 15 8a 7d be 8c f6 9a 3e d0 c9 9a bf
       0.1323171 -0.24759705 0.30266225 -1.2092838

model/dense_2/MatMul f4 [1, 64]
000000 0f d3 a8 bd 86 e3 95 3c 86 75 7f be 6c 13 16 be
       -0.08243381 0.018296968 -0.24947175 -0.14655846
000010 4c 15 1d 3e 89 83 20 3d 2c 86 4f be 41 31 7d 3e
       0.15340155 0.03918794 -0.20266026 0.2472582
000020 95 0f 8a bc cc dc a1 ba 1b 03 92 bc d7 f3 5a be
       -0.016853133 -0.0012349128 -0.017823746 -0.2138208
000030 39 77 d5 bd 66 be d8 3a b4 ef 40 3d a7 8b c3 3d
       -0.104231305 0.0016536235 0.0471036 0.09548121
000040 e2 e1 a9 3b 69 6b 0c 3e d3 47 32 be 01 04 73 be
       0.005184398 0.13712849 -0.17410211 -0.23731996
000050 47 89 45 3e 90 f1 04 3b 8d fc 83 be d9 24 c3 3d
       0.19290648 0.0020285584 -0.25778618 0.095285125
000060 54 5a 64 3b 1d 0d 25 38 3a bd 9a bd ca a5 2c be
       0.0034843879 3.935128e-05 -0.07555623 -0.16860119
000070 54 90 90 3a 1e 90 0e 3b 96 c1 c8 3c ec 98 d5 bd
       0.0011029341 0.002175338 0.024506371 -0.10429558
000080 eb c1 33 3e 4e 08 d1 bc 19 09 df b9 69 14 71 bd
       0.17554443 -0.025516655 -0.00042540653 -0.058857355
000090 31 bc 1e 3e 48 af 5f 3e 35 b8 48 be a6 82 07 3d
       0.15501477 0.21844208 -0.1960152 0.03308358
0000a0 35 4b 8b 3e 00 94 14 be 6b 83 8f 3a fd d0 43 bc
       0.27205816 -0.14509583 0.00109492 -0.011951682
0000b0 f6 4a 8f bd a2 c5 35 3e fa 96 7e bd 9d 62 91 bd
       -0.069967195 0.17751172 -0.0621557 -0.07098887
0000c0 80 48 03 3c 1e 6e 50 bb d7 eb 28 bb 07 a7 4d bc
       0.008012891 -0.0031803916 -0.0025775337 -0.012552029
0000d0 0b 12 c6 3b d4 be 85 be 68 f0 7b 3b 21 90 eb bc
       0.0060446314 -0.26122153 0.0038442854 -0.02875525
0000e0 b1 4c 43 be 0c a4 0d 3e fc 9c b3 bc 90 97 fd bd
       -0.19072224 0.1383211 -0.021925442 -0.12382424
0000f0 e1 8e 2f 3b 16 df 4f 3a 64 fd b6 b9 70 6c 77 be
       0.0026788043 0.0007929666 -0.00034902536 -0.2416246

model/lstm/Read_2/ReadVariableOp1 f4 [256]
000000 4f bc 82 be 03 57 8e 3f b7 8f 8c 3e 43 19 6b 3f
       -0.25534293 1.1120304 0.27453396 0.9183542
000010 11 c6 59 3d c1 7d c0 3f 68 03 07 3f 6b c1 a9 3f
       0.053167406 1.5038377 0.5273957 1.3262151
000020 55 a8 98 3d e5 ac 78 3f e3 95 99 3f ee d1 43 3f
       0.07453982 0.97138816 1.1998867 0.764922
000030 c7 dc 55 3e 8d a4 90 3f 8c 2d 02 3f 09 e1 9f 3f
       0.20885001 1.1300217 0.5085075 1.249055
000040 1f cb 4d bd 5d 4f 24 bd 56 43 3b 3f b4 7e 3d 3f
       -0.05024254 -0.04011475 0.7314962 0.7402146
000050 f5 45 01 3f ba ab be 3e e0 1a 30 3e ca c3 8a 3f
       0.5049737 0.37240392 0.17197752 1.0841
000060 9e 46 b4 bd 7a 9e 7f bc 54 42 1c be c0 59 f7 bc
       -0.08802532 -0.015601749 -0.15259677 -0.030194163
000070 00 c2 e1 3d 0b e7 be 3f 00 a8 7e 3e ce 18 8e 3f
       0.11023331 1.4914259 0.24868774 1.110132
000080 d3 82 f7 3e 84 f2 e2 3e 0a 89 15 3f d2 54 e3 3f
       0.48341998 0.4432565 0.5841223 1.776026
000090 4f 77 a4 3e 2a 92 80 3e 18 b8 21 3f 3a 0a 61 3f
       0.32122275 0.25111514 0.6317153 0.8790623
0000a0 6c f9 8b 3f b4 3f 41 3f 47 30 53 3e 57 28 05 3f
       1.0935493 0.7548783 0.20623885 0.5201468
0000b0 62 23 3f be b4 94 8f 3f 40 19 b1 3e b9 45 25 be
       -0.18665841 1.1217256 0.34589577 -0.16139878
0000c0 64 54 4a 3f 78 e7 82 3e ec b3 48 3f c9 8a 86 3f
       0.7903502 0.25567222 0.7839954 1.0511104
0000d0 01 b2 c8 3f e7 9d cf 3f 75 36 b0 3e da 77 51 3f
       1.5679322 1.6220063 0.34416547 0.81823504
0000e0 a1 df 6a 3f 30 c9 54 3e fe 4b b9 3f ea 8c a5 3e
       0.9174748 0.20779872 1.4476316 0.3233407
0000f0 0e 79 c8 3e fb 36 8d 3e b7 4a 75 3f 7e b1 32 3e
       0.39154857 0.2758101 0.9581713 0.1745052
000100 ff 24 89 3f d1 b9 a5 3f 64 61 99 3f a1 53 b7 3f
       1.0714415 1.2947332 1.1982846 1.4322397
000110 5d 31 33 3f e7 e7 8f 3f 19 02 7e 3f 1d b7 97 3f
       0.699972 1.1242646 0.9922195 1.1852757
000120 54 52 93 3f 06 0a 83 3f 17 19 ad 3f ad 9f 75 3f
       1.15095 1.0237434 1.3523282 0.9594677
000130 16 2b 6e 3f 85 42 65 3f e3 5d 5c 3f 02 19 b2 3f
       0.93034494 0.89554626 0.8608076 1.3913882
000140 77 60 6a 3f 0e 06 6a 3f 08 a2 a2 3f 6e ab 9c 3f
       0.91553444 0.9141549 1.2705698 1.2239816
000150 a5 26 a0 3f df 4e 67 3f 12 56 5f 3f 0d 6d 8d 3f
       1.2511793 0.9035472 0.8724071 1.1048905
000160 0c e2 6d 3f ce de 94 3f d5 36 8b 3f 48 30 5e 3f
       0.92923045 1.1630495 1.0876108 0.8679242
000170 b9 26 8e 3f 93 9f b4 3f d3 db 98 3f 66 63 87 3f
       1.1105567 1.4111198 1.1942085 1.0577209
000180 e6 c2 55 3f 97 07 8a 3f 20 cd a9 3f 99 38 b8 3f
       0.83500516 1.0783566 1.3265724 1.4392272
000190 a1 d4 72 3f 30 60 8d 3f 53 c9 78 3f 5d 99 87 3f
       0.94855696 1.1044979 0.97182196 1.0593678
0001a0 0f c0 90 3f 9b cc a2 3f 08 4c 95 3f ca 5b 6d 3f
       1.1308612 1.2718691 1.1663828 0.92718184
0001b0 16 55 69 3f 95 02 7d 3f 7c 1d 66 3f ff d2 a9 3f
       0.91145456 0.98832065 0.8988874 1.3267516
0001c0 77 44 97 3f a4 57 83 3f 8d 5d 43 3f f9 99 8e 3f
       1.1817769 1.0261121 0.7631462 1.1140739
0001d0 70 94 8d 3f 52 59 9b 3f 2d bc 83 3f 4c 6e a2 3f
       1.1060925 1.2136633 1.0291802 1.268991
0001e0 1f a5 b8 3f 27 da 84 3f 09 34 8a 3f 50 62 85 3f
       1.4425391 1.0379075 1.079713 1.0420628
0001f0 f6 97 8b 3f 2c 33 86 3f c9 b4 84 3f df eb 8e 3f
       1.090575 1.0484366 1.0367671 1.1165732
000200 85 2e 45 be 2d b7 66 bf fb d5 0e 3f 2f 9f 41 bf
       -0.19256027 -0.90123254 0.5579526 -0.7563352
000210 96 54 ee be c6 c3 b3 3f 91 a1 8b 3f e9 8f c2 bf
       -0.4654891 1.404412 1.0908681 -1.5200168
000220 53 3c c5 3e 35 98 c7 be f5 32 b5 bf cc 22 9e 3f
       0.38522586 -0.38983312 -1.4156176 1.2354369
000230 c6 93 84 be d8 da 36 3f c0 5a 26 bf 0c e8 8b bf
       -0.25893992 0.7142768 -0.64982224 -1.093019
000240 d8 3c 30 bf e3 ba f0 3d cd 90 90 3f 24 48 08 3f
       -0.6884284 0.11754396 1.129419 0.5323508
000250 00 b2 b4 3e a6 bd 18 be 52 8c 9b be a5 77 80 bf
       0.35292053 -0.14916095 -0.30380493 -1.0036513
000260 e2 42 1a be fd 47 ef be 26 08 c6 3e 9a bd 1f 3e
       -0.15064576 -0.4673461 0.38678092 0.15599671
000270 bf f3 41 be c4 44 9f bf f1 9d cc be 41 08 0a bf
       -0.18940638 -1.2442861 -0.3996425 -0.53918844
000280 bb 67 2c 3f 10 2b 04 3f ca f0 86 bf 0d db d1 3f
       0.6734578 0.5162821 -1.0542233 1.6394974
000290 c0 21 36 bf a9 1c b2 3e e6 35 2c 3f 55 e9 84 3f
       -0.7114525 0.3478749 0.6726974 1.0383707
0002a0 65 47 a8 3f 4b 93 e6 be c7 4c 5c 3e 35 c5 e5 3a
       1.3146788 -0.4503425 0.21513663 0.0017530086
0002b0 ef 40 92 3e 0a 96 05 bf e6 ac 86 be aa 34 3a be
       0.28565165 -0.52182066 -0.26303786 -0.18184152
0002c0 5d 1c 5a 3f a0 92 9b 3d 79 b9 3b 3f 74 57 2d 3f
       0.8519953 0.07596326 0.73329884 0.6771157
0002d0 78 6c c9 bf 09 a8 92 3f 67 62 e9 3e b6 5d 05 3f
       -1.5736227 1.145753 0.45582888 0.52096117
0002e0 87 c2 5e 3f 8f 75 0f bf de 7d 89 bf 7e ec 2a bf
       0.87015575 -0.56038755 -1.0741537 -0.6676711
0002f0 7d 6b cb 3e 87 45 bd 3e 2c fc 89 bf b8 46 d3 3e
       0.39730445 0.36967108 -1.0780082 0.41264892
000300 b5 29 8b bd 52 91 c7 3f f9 9d 0e 3f fa d8 4c 3f
       -0.06795064 1.5591223 0.557098 0.8001858
000310 00 07 6f be 71 ae 42 3f 61 f7 d8 3f e7 fc 64 3f
       -0.23342514 0.76047426 1.6950494 0.894484
000320 0e ee 9d 3e 26 9f 21 3f 67 22 e0 3f f2 34 ea 3f
       0.30845684 0.63133466 1.7510499 1.8297408
000330 6c 70 32 bf 87 fc 80 3e fd 9c 1b be 2c 5f b3 3f
       -0.6970279 0.25192663 -0.15196605 1.4013419
000340 aa 97 a3 3f d3 56 a9 3e f1 52 b9 3f b4 65 52 3f
       1.2780659 0.33074054 1.4478437 0.82186437
000350 0e fe 1d 3f 41 46 5a bd 18 ca 3b bf 69 ff 6a 3f
       0.6171578 -0.053289656 -0.73355246 0.91795975
000360 4d 13 d5 3e 3a dc 09 3e 9a d8 5c 3e 61 dc ea bd
       0.41616288 0.13462916 0.21567002 -0.11467815
000370 1c da e2 be f4 72 c8 3f 98 65 ce 3e 6e 65 24 3f
       -0.4430703 1.5660081 0.40311885 0.6421727
000380 53 7c 5a 3f fa b2 6a 3f 19 99 94 3f 65 e4 a3 3f
       0.85345954 0.91679347 1.1609222 1.2804075
000390 2a 0a 6d bc 37 a9 46 3f fc 74 3e 3f 05 c3 43 3f
       -0.014467755 0.7760195 0.74397254 0.7646945
0003a0 8f b1 b9 3f 1e 6d 35 3f 9c 8d 83 3e 6e 0f b6 bd
       1.4507312 0.70869625 0.25693977 -0.08889662
0003b0 bf ca 06 be 65 96 c8 3e ad 11 4f bf 4a e8 64 bf
       -0.13163279 0.39177242 -0.80886346 -0.89416945
0003c0 50 37 06 3f 56 9b 52 3c 5b de 16 3f b0 0d c6 3e
       0.5242815 0.012854418 0.5893304 0.38682318
0003d0 c9 01 d9 3f a2 77 a4 3f 0b 8b 2a 3e 30 e3 62 3f
       1.695367 1.2849009 0.16654603 0.8862791
0003e0 be b9 c6 3f ca 23 09 3e 16 dd 53 3e ff 59 4d 3f
       1.5525434 0.13392559 0.20689806 0.8021545
0003f0 32 cb af 3e 95 25 e3 3e 46 9f 54 3f c4 58 46 3f
       0.34334713 0.4436461 0.8305553 0.77479196

while/MatMul_1 f4 [256, 64]
000000 50 c1 9a bd 38 af 39 bf 9a 0b b5 3e 13 b7 56 bf
       -0.07556403 -0.7253299 0.35360414 -0.838731
000010 2b ca 8e be 13 5b 31 3f a4 6b 0f 3f c3 fe 37 bf
       -0.27888617 0.69279593 0.5602362 -0.7187311
000020 51 48 ea 3d c2 a4 c7 be 95 d3 0a bf 07 0b 09 3f
       0.114395745 -0.38992888 -0.542291 0.5353245
000030 2d 15 75 bd 00 fe d9 3e 57 5a 07 bf a0 b8 3a bf
       -0.059834648 0.425766 -0.5287222 -0.72937965
000040 c2 e6 0c bf 2b 2f 49 3e c8 9d 25 3f f6 a1 25 3f
       -0.5503961 0.196469 0.6469388 0.6470026
000050 f2 97 e8 3e c4 6c ad be 0f 23 b1 3d f6 a5 33 bf
       0.45428425 -0.33872044 0.08649265 -0.7017511
000060 b8 d4 33 3d 2e a8 d7 be e2 eb f4 3e ef a3 9b 3e
       0.043904036 -0.42120498 0.47836214 0.3039851
000070 88 8c bf bd 48 df 3b bf 81 94 94 be 85 26 23 bf
       -0.09352976 -0.73387575 -0.2901955 -0.6373065
000080 dc 2e f1 3e e0 95 22 3f 75 09 06 bf 04 d2 04 3f
       0.47106063 0.6350994 -0.5235818 0.5188296
000090 54 fd e5 be 75 ab b2 3e dc c2 20 3f 14 96 28 3f
       -0.44919837 0.34896436 0.6279733 0.65854
0000a0 23 77 26 3f 9a 93 18 bf 39 44 b0 3e dc 90 85 3b
       0.6502554 -0.5960022 0.3442705 0.0040761065
0000b0 db 58 d8 3e 16 00 e4 be 24 ef 71 bd b1 5c ee be
       0.4225529 -0.44531316 -0.059065953 -0.46555093
0000c0 13 9e 06 3f b4 93 82 3e 82 fe 11 3f a2 68 fd 3e
       0.5258495 0.25503314 0.57028973 0.4949389
0000d0 69 6a 37 bf 3f 87 34 3f 48 06 e5 3e ec 7a 4c 3f
       -0.71646744 0.7051887 0.44731355 0.79875064
0000e0 f9 5c 48 3f 2c 3c 04 bf a7 18 00 bf 85 70 e0 be
       0.78266865 -0.51654315 -0.50037616 -0.43835846
0000f0 a0 6c c8 3e d7 cc 80 3e 7b 3e 09 bf 9d 6d ff 3e
       0.39145374 0.2515628 -0.5361096 0.49888316
000100 22 25 a2 3d f3 ab 6e bf 99 85 bc 3e 33 c8 2f bf
       0.07917239 -0.93231124 0.36820677 -0.68664855
000110 56 e1 6b 3e 27 7a e5 3e 43 01 17 3f 62 2d fc be
       0.23035178 0.44819757 0.589863 -0.49253374
000120 30 ce 8b be 3d 9f 22 be 15 be 2c bf 79 a9 31 3f
       -0.27305746 -0.15881057 -0.6747754 0.6939922
000130 5e 8d 70 3e d9 10 8a 3e 8b 51 82 be 45 9d e3 be
       0.23491427 0.2696598 -0.25452837 -0.44455925
000140 e2 cc aa be 3c 74 34 bd d9 87 7a 3e 38 53 51 3f
       -0.33359438 -0.044056162 0.24465884 0.81767607
000150 71 93 0e 3f 7b be 39 3e bb ec a0 b8 e6 94 f3 be
       0.5569373 0.18139069 -7.673489e-05 -0.47574538
000160 b2 83 ea 3c 59 e4 de be 74 eb ac 3d 28 eb 1a 3f
       0.02862725 -0.4353359 0.084433466 0.6051507
000170 b6 b8 5a 3e 12 49 5b bf 18 5a 9e bd 34 27 46 be
       0.21359524 -0.8565837 -0.07732028 -0.19350892
000180 97 8c ff 3e 15 db 13 3f b7 2d 39 bf e1 2a 25 3f
       0.4991195 0.5775617 -0.7233538 0.64518553
000190 be 6f e7 be e5 e1 70 3e 39 bd 0a 3f 7e 36 0c 3f
       -0.4520244 0.23523672 0.5419498 0.5477065
0001a0 4c ed fe 3e 7e b6 3f bf a4 c6 b9 3e 53 b9 14 be
       0.49790418 -0.74887836 0.36284363 -0.1452382
0001b0 62 12 5a be 1f b1 7c be 6c de c1 3d c8 77 18 bf
       -0.21296075 -0.24676941 0.09466252 -0.5955777
0001c0 a3 72 bc 3e 55 60 f8 3e b9 5e b5 3e 4a 4d c6 3e
       0.3680621 0.48510996 0.3542383 0.38730842
0001d0 3f f1 15 bf d1 4f 34 3f d9 4c c4 3c 5a 37 0b 3f
       -0.5857124 0.7043429 0.023962425 0.54381335
0001e0 d2 28 24 3f 41 d1 0c bf 5b aa bd be 8a 38 e1 be
       0.64124787 -0.55006796 -0.37044033 -0.43988448
0001f0 6b 2d 29 3f 39 cb c1 bd 96 bc 68 bf b6 40 63 3e
       0.6608493 -0.0946259 -0.9091276 0.22192654
000200 9c 21 f3 3d 6e 2a 0a bf 4d c1 fc be a8 e1 20 be
       0.11871645 -0.5397099 -0.49366227 -0.15711081
000210 4a c2 12 3f c3 e9 85 3e c2 fa 52 3e 4a 54 96 be
       0.5732771 0.2615491 0.20603469 -0.29361182
000220 15 46 03 bf 3c 32 d0 3d 4e a8 a4 be 6a c8 c9 3e
       -0.5127881 0.101658314 -0.32159656 0.39410716
000230 90 0f e1 3e 27 6c 16 3d f5 21 24 bb dd 6f 0e bf
       0.43957186 0.036724236 -0.0025044654 -0.5563944
000240 4f d0 dc 3c 69 1d ac be 76 6b 95 3d c5 37 ee 3e
       0.026954798 -0.33616188 0.07295887 0.46526924
000250 36 22 84 3e 21 36 8f 3e e6 8d 89 3e d8 ed a3 be
       0.2580735 0.27970985 0.26866072 -0.32017398
000260 f1 9f 77 3c 39 33 e5 bc aa d7 a1 bd 30 c5 bc bd
       0.015113817 -0.027978526 -0.07902463 -0.09217298
000270 f8 22 2c 3f c8 01 df be 93 88 18 3e 7f de c1 bd
       0.6724086 -0.43556046 0.14895849 -0.09466266
000280 3b b8 aa 3e 3c f7 7b 3e 0b 9c c4 be f5 11 66 3e
       0.33343682 0.24606031 -0.384003 0.22467788
000290 02 0e 83 be 65 e2 92 be e8 32 ed 3e c6 9c 68 3e
       -0.25596625 -0.2868835 0.463279 0.22716054
0002a0 2a 31 ff 3e 25 c2 dd be f7 02 6e 3c 27 87 b4 be
       0.49842197 -0.43312183 0.014527074 -0.35259363
0002b0 83 fc 80 be 4b c5 90 3d f5 e8 e8 3e ea c6 44 be
       -0.2519265 0.07068881 0.45490232 -0.19216505
0002c0 9d 2e 65 3e 4a ed 63 be 53 29 16 be be cb b7 3e
       0.22381063 -0.22258487 -0.14664201 0.3589763
0002d0 b3 47 09 bf 91 05 04 3f d7 8c 2c 3d fd b2 22 3f
       -0.5362503 0.51570994 0.042126503 0.63554364
0002e0 f4 db 0e 3f 92 d3 0f bd f5 d6 d5 bd 6a e6 39 be
       0.5580437 -0.03511388 -0.104413904 -0.18154302
0002f0 e2 2c 89 3e 30 8c bf bd 96 79 02 bf 58 b4 e0 3d
       0.26792055 -0.093529105 -0.50966775 0.10971898
000300 aa 41 61 be 84 53 40 bf 79 a9 b4 3e 6b e8 f0 be
       -0.21997705 -0.75127435 0.35285547 -0.4705232
000310 b3 01 17 be 6d e4 2b 3f 9b 97 e8 3e d5 50 e1 be
       -0.14746742 0.67145425 0.45428166 -0.44006982
000320 9d 66 fd 3d fc 5b b7 be 6a 22 27 bf 45 2d 46 3f
       0.123730876 -0.35812366 -0.65286887 0.77412826
000330 66 f7 28 be 5c df b8 3e 6a c9 e2 be da 95 3b bf
       -0.16500625 0.3610791 -0.44294292 -0.7327553
000340 3b 39 cc be bb c5 cc 3d 04 4c 06 3f f0 e8 37 3f
       -0.39887413 0.099986516 0.5245974 0.7183981
000350 97 ed 05 3f f8 1a 42 be 4e 43 c3 be 08 14 09 bf
       0.5231566 -0.189556 -0.38137287 -0.5354619
000360 a3 d4 80 bd b6 9f a7 be e0 74 93 3e 52 b3 d9 3e
       -0.06290557 -0.32739037 0.28800106 0.42519623
000370 94 fd 2e 3e 22 e4 1e bf 23 66 b3 be 70 f2 0f bf
       0.1708892 -0.62066853 -0.35038862 -0.56229305
000380 36 f5 3b 3f b7 95 ee 3e 43 7e e2 be 85 9f b6 3e
       0.7342104 0.46598598 -0.44236955 0.3566858
000390 eb 74 fa be 15 8c 86 3e 64 53 29 3f e4 26 db 3e
       -0.48917326 0.2627875 0.6614287 0.4280311
0003a0 d6 e1 39 3f 9a b6 2a bf c0 0f 81 3e 50 79 f1 bc
       0.72610223 -0.6668488 0.2520733 -0.029476792
0003b0 9f 15 97 3d 96 7d b8 be 62 fc 09 be 9b 5f da be
       0.07377171 -0.36033314 -0.13475183 -0.42651066
0003c0 d7 89 0f 3f 01 01 d1 3e 8e 97 b9 3e ea b9 0f 3f
       0.560697 0.40821078 0.3624844 0.5614306
0003d0 72 94 da be 6c e1 39 3f 1c bd b1 3e 64 9a 3e 3f
       -0.4269138 0.7260959 0.34714592 0.7445433
0003e0 65 37 2e 3f 7c ab 0c bf 31 7e 63 be 65 1b 07 bf
       0.68053275 -0.54949164 -0.22216107 -0.52776176
0003f0 b4 b5 14 3f 1a dc a2 3e c6 c4 15 bf 4a 9c c4 3e
       0.58089757 0.3180855 -0.5850338 0.3840049

while/MatMul f4 [256, 1]
000000 23 8c 0d 3d a5 8e b0 3e 41 19 f7 3d 6e 0a 7b 3e
       0.034557473 0.3448383 0.12065364 0.24515697
000010 1b 1d 54 bd 7e 7e 90 3f fd 0d c7 3e ae ae f4 3e
       -0.05178557 1.1288602 0.3887786 0.4778952
000020 4e 39 fb 3d 95 8d 1f 3e db 1e 40 3f 7d b5 81 3e
       0.122667894 0.15581353 0.7504708 0.25333777
000030 de 9f 91 3e 94 99 47 3d 1b a6 40 3d 5d ff 55 3f
       0.2844228 0.048730448 0.04703341 0.8359278
000040 0c 4a 31 3d a4 50 2c 3e 21 1e 65 3e ba 04 f1 3e
       0.043283507 0.16827637 0.22374775 0.4707392
000050 9c cb 16 3e 91 b1 34 3d 9f 6b 88 3e 19 3b 92 3e
       0.14726108 0.044114653 0.26644608 0.28560713
000060 ce 2b 8c 3d b4 a6 a7 3c e2 a6 99 3d c4 2e ad 3d
       0.068442926 0.020465232 0.075025335 0.084561855
000070 f7 6f 2a 3e f7 ab 57 3f 11 0c 1a 3e 05 05 44 3e
       0.16644274 0.8424677 0.15043665 0.1914254
000080 20 84 e6 3e 75 34 5b 3d d2 56 53 3e 06 ca 3a 3f
       0.45022678 0.053516824 0.20638588 0.72964513
000090 96 eb 5f 3d be dc bf 3d 0a 3e df 3e 65 06 9e 3e
       0.05466803 0.09368275 0.4360202 0.30864254
0000a0 38 8b 17 3f fd 45 e3 3d c0 75 3b 3d fc a2 a1 3d
       0.59196806 0.110973336 0.045766592 0.07892415
0000b0 e1 71 ba 3d 48 9c fb 3d dc 81 7b 3e 60 a2 85 3e
       0.09103752 0.12285668 0.24561256 0.26100445
0000c0 e6 af 0a 3f 68 c4 03 3d 81 2c e5 3e 78 26 01 3f
       0.5417465 0.03216973 0.44760516 0.50449324
0000d0 fa da 90 3f c2 80 91 3f 54 17 a6 3d 71 df 85 3e
       1.1316826 1.1367419 0.08109918 0.26147035
0000e0 c2 08 d6 3e 61 1b e1 3d b8 e9 0a 3f c3 80 00 3e
       0.41803557 0.1099155 0.54262877 0.12549119
0000f0 cf be e1 3d ca bd 5a 3e dd bb 12 3f 02 35 a2 3e
       0.11022722 0.21361461 0.57317907 0.31681067
000100 a5 b7 93 3d 3a c2 c2 3e 1f c4 24 3d b5 c1 65 3e
       0.07212762 0.38038808 0.0402261 0.22437175
000110 46 12 c4 3d f7 80 d7 3e b5 87 77 3d c2 5c 77 3e
       0.09573798 0.4209058 0.060432155 0.24156478
000120 b0 71 12 3e 26 27 65 3d 44 ad 94 3e 9c fd 33 3d
       0.14301181 0.055945538 0.2903844 0.043943033
000130 e7 7e e2 3d 49 66 2b 3d 1c 04 16 3d 09 bb a5 3e
       0.11059361 0.041845594 0.036625013 0.3236926
000140 4f 54 5e 3d 59 8f 5f 3d 70 ef 61 3e 24 b6 a7 3e
       0.05427962 0.054580066 0.22063994 0.3275615
000150 a3 33 d3 3c 82 ad 79 3d ac 0e 80 3d a8 fb 8f 3e
       0.025781458 0.060956486 0.062527984 0.28121686
000160 98 38 8c 3d 01 90 d9 3c 5a 2e ff 3c 02 3c b0 3d
       0.06846732 0.026557924 0.031150032 0.086051956
000170 5b 57 90 3d d1 d1 a8 3e 48 1b 03 3d 44 0c 00 3d
       0.07047912 0.32972577 0.03200844 0.031261697
000180 50 28 17 3d 07 29 94 bd 48 48 33 3e 82 51 a4 3e
       0.03690368 -0.07234388 0.17508042 0.32093436
000190 64 5b b5 bd 65 63 bd 3c da 70 b5 3e 83 c1 8b 3e
       -0.08855322 0.023118684 0.3543766 0.27296075
0001a0 eb db 74 3e 58 e3 6f 3e b7 b6 49 3d 96 c5 e6 3c
       0.23912017 0.23426569 0.049246516 0.028170388
0001b0 f3 94 54 bd 3b 46 1c 3d b0 65 06 3e 3f 65 32 3c
       -0.05189986 0.038152914 0.13124728 0.010888397
0001c0 70 88 7a bd 0e b9 0b 3d 63 11 13 3e ce d0 3f 3b
       -0.061165273 0.03411203 0.14362101 0.0029268744
0001d0 6a 3e 90 3e 68 9e cc 3e ea 0c 58 3d c8 aa 66 3e
       0.28172618 0.39964604 0.05274669 0.22526085
0001e0 26 e1 15 3e 67 7c 94 bd 45 9e a1 3d ca 3f 30 3d
       0.14636669 -0.0725029 0.07891516 0.043029584
0001f0 31 5f 37 3d 35 19 eb 3d 5a f8 89 bd 7b d4 7a bd
       0.044768516 0.11479417 -0.067368224 -0.061237793
000200 27 3f 0f bd 6f a9 cc be cd dd 7e 3d b8 60 eb be
       -0.034972336 -0.39973018 0.062223244 -0.45972228
000210 0c b5 a3 bc 3c e8 72 3f c0 04 08 3f 98 f7 09 bf
       -0.01998379 0.9488561 0.5313225 -0.53893423
000220 7d 8d d6 3d 48 ab 11 be b4 df 28 bf 59 3c 3f 3e
       0.104762055 -0.14225495 -0.65966344 0.18675365
000230 fd 87 5f 3d 73 f9 51 3d a4 29 eb bc ee 81 4b bf
       0.054573048 0.051263284 -0.02870638 -0.7949513
000240 d8 60 5a bd a3 78 08 3e 7a 7e c7 3e 62 be bc 3e
       -0.053315014 0.1332727 0.3896368 0.36864
000250 6f ff aa 3d 09 44 05 bd 50 03 aa 3d 28 6a 32 bd
       0.08349501 -0.032535587 0.08301413 -0.04355827
000260 3c 91 b5 bd 6c 61 11 bd a5 20 4c 3d 40 48 3e 3b
       -0.08865592 -0.0354933 0.04983582 0.0029034764
000270 8d 41 11 3e ba 07 37 bf ef 95 ab bd 3d e8 50 be
       0.14185162 -0.71496165 -0.08378207 -0.20401092
000280 f7 31 c6 3e 5b ae 1e bc a1 9f ba be bf 38 3f 3f
       0.38709995 -0.009685124 -0.36449912 0.7469596
000290 53 c5 57 be 5c cc 65 3d d4 a1 d7 3e 2f c8 3d 3e
       -0.21071367 0.056103095 0.42115653 0.18533395
0002a0 04 7e 03 3f 44 b6 8d bd 64 e6 13 3d 27 80 7d bd
       0.5136416 -0.0691953 0.03610839 -0.061889794
0002b0 45 ad d6 3d 5d d9 00 bd c2 1a a7 3d b3 5c 0d bd
       0.10482267 -0.031457294 0.081594005 -0.034512233
0002c0 64 a1 ec 3e 5c 54 95 bd 46 54 5c 3e 09 a6 1b 3e
       0.4621688 -0.07291481 0.21516523 0.15200056
0002d0 1a bb 56 bf 87 63 3d 3f 1b f6 50 3d 51 d9 24 3d
       -0.83879244 0.7397999 0.051015954 0.04024631
0002e0 a4 e7 d1 3e 89 97 07 bd 66 34 bd be a5 15 69 bd
       0.4099704 -0.0331035 -0.3695404 -0.056905407
0002f0 e5 9c aa 3d ef a5 1f 3e b9 92 44 bf 6e c7 40 3e
       0.083307065 0.15590642 -0.7678638 0.18826076
000300 c1 8f 3e 3d 7d e1 9f 3e f9 11 e9 3d 64 34 fd 3d
       0.046523813 0.3122672 0.11380381 0.12363508
000310 d5 e2 73 3d b3 a1 46 3c 3e 80 1c 3f 75 3b 57 3e
       0.059542496 0.012123513 0.6113318 0.21018775
000320 65 d7 c8 bc d2 07 84 3e 2b 1f 31 3f e5 15 12 3f
       -0.02451677 0.25787216 0.69188184 0.5706466
000330 e9 9e 3f bd 9d 34 37 3e 04 c0 8f 3d 02 ce 47 3f
       -0.046782408 0.17891164 0.07019046 0.7804872
000340 3e ad 4d 3d c2 1c 0c 3e c8 8d 62 3e 62 f6 f5 3e
       0.050214045 0.13682845 0.22124398 0.48039538
000350 28 c3 c4 3d 40 aa 0c 3d b3 f1 1a 3d 92 1f 8a 3e
       0.096075356 0.03434205 0.03782816 0.2697721
000360 11 42 49 3d 95 c1 9c 3c 0c 94 b3 3d bf d3 61 3e
       0.04913527 0.019135276 0.08768472 0.22053431
000370 95 e6 13 bd 2a 03 4a 3f df f4 0e 3e b5 5b 56 3e
       -0.036108572 0.7891108 0.13960598 0.20933421
000380 23 a7 05 3f 30 1e a8 3e 64 89 58 3e 72 9d eb 3d
       0.52208155 0.3283553 0.2114616 0.1150464
000390 64 7d 2c 3d eb a1 14 3e 3d 4a 06 3f 0a 50 a2 3d
       0.04211177 0.14514892 0.5245703 0.079254225
0003a0 4f ee 93 3e 57 3a d8 3d d0 8b 39 3d 01 63 d6 3d
       0.28892753 0.105580024 0.04529935 0.10468102
0003b0 21 05 5e 3d 59 78 f1 3d 69 6b 1e 3d 20 b0 a8 3c
       0.05420411 0.117905326 0.038676653 0.020591795
0003c0 74 ee bd 3e 5b 97 a0 3d 26 32 4b bc eb 6e b3 3e
       0.37095988 0.07841369 -0.012402093 0.3504556
0003d0 8b 7b 98 3f 77 24 71 3f 98 52 b4 3d d6 78 94 3e
       1.1912702 0.94196266 0.08804816 0.2899844
0003e0 6b a3 ba 3e a3 ba 3e 3d e2 2b 95 3e fc a0 a6 3e
       0.36452803 0.04656471 0.29135042 0.32544696
0003f0 13 f1 d6 3d c0 ba 61 3e 2b 67 0c 3e 20 7b 5b 3e
       0.104952 0.22043896 0.1371123 0.21433687
