device/ProjectMAIL/partition/model_low2.tflite (tflite, 2580 bytes, 2 tensors)

model/dense/MatMul f4 [64, 4]
000000 04 6f 9b be c4 87 97 3d ff e5 5d be 59 19 b0 be
       -0.30358136 0.07398942 -0.21669768 -0.3439434
000010 3e fd 28 3d 62 72 37 b9 a5 40 ef be aa 01 55 bc
       0.041257136 -0.00017494851 -0.46729007 -0.013000885
000020 3a 0e 12 3d cd 9c d0 bd 75 de 68 3d f0 c7 22 3e
       0.0356581 -0.101861574 0.056852777 0.15896583
000030 a8 5b 97 bd 0d 08 e1 39 a8 c7 2b 3d c2 22 46 3c
       -0.07390529 0.00042921343 0.041938454 0.012093248
000040 28 fb 3e bc 70 f6 0e 38 6a 63 82 3e 5a 38 75 3b
       -0.01165656 3.408495e-05 0.25466472 0.0037417621
000050 bf 47 67 be 0c ba 4b 3a b4 89 b4 3e a9 f1 65 3d
       -0.22585963 0.00077715586 0.3526131 0.05613867
000060 89 67 80 3c 97 52 8f b8 66 42 49 3c 4c e2 cc bb
       0.01567437 -6.834155e-05 0.012283897 -0.0062525626
000070 3d 70 e6 be a2 83 c9 bd ba b4 e5 3d 82 31 4f 3d
       -0.45007506 -0.0983956 0.112161115 0.050584324
000080 a0 bc 21 3e be fa 0c be 2e dd 50 bd a9 d1 b4 3d
       0.15794611 -0.13767526 -0.050992183 0.08829052
000090 81 da e7 3e c7 c1 39 3e 11 25 3e be 49 a2 97 bd
       0.45283893 0.18140326 -0.18568827 -0.07404
0000a0 11 a2 a5 be b9 e9 c7 bc 12 04 86 3e ef 59 d3 3e
       -0.3235021 -0.02440344 0.2617498 0.4127955
0000b0 fd 58 16 bd 90 fa 3f 39 a3 91 bc 3e 6c cd d6 3a
       -0.03670596 0.00018308521 0.36829862 0.0016388125
0000c0 f5 58 da be fe 2b d1 3a e2 1b bc be db 1b ac 3d
       -0.42645994 0.0015958545 -0.36740023 0.084037505
0000d0 f1 a8 a4 bc a0 06 4d 39 d1 19 cc 39 58 c1 c9 3b
       -0.020100089 0.00019552791 0.00038929147 0.0061570816
0000e0 07 ad b7 3e d8 ff 5b be 8e f5 25 3e 77 7c 80 be
       0.35874197 -0.21484315 0.16206953 -0.2509496
0000f0 ac e8 e4 3b c1 67 0e b9 63 9d 97 3e 6b bf 50 bb
       0.0069857445 -0.00013580827 0.29612264 -0.0031852375
000100 35 b8 81 3c f2 b3 2f b9 c0 78 71 be 51 04 fa bb
       0.015834907 -0.00016756335 -0.23581219 -0.007629909
000110 b1 06 58 3b 97 2d 3e be bc 24 38 bd d4 74 a5 3e
       0.0032962973 -0.18572079 -0.044956908 0.32315695
000120 3a 1f b3 3a 55 6a 15 bd 12 d8 a2 3d 1b 33 f4 3d
       0.0013665922 -0.03647836 0.079513684 0.1192381
000130 d9 ba 95 3e a3 57 33 bd 3c 3a ef 3d 58 ab 8c bd
       0.29244116 -0.04378475 0.11681029 -0.06868619
000140 59 a5 d1 bc 93 9b 57 3e 8c b5 78 be ad 77 91 be
       -0.02559154 0.2105544 -0.24288005 -0.28411618
000150 b7 10 a5 be f1 56 36 3e f3 4d c1 be bd fb 94 3d
       -0.32239315 0.17806603 -0.37754783 0.07274578
000160 a2 7b c2 3d 0a 21 35 be b9 54 03 bd 93 50 bd 3e
       0.09496237 -0.17688385 -0.03206322 0.36975536
000170 a9 ac 83 bb d7 0d 83 b7 67 5e df bd a1 d8 03 3c
       -0.0040183854 -1.5622862e-05 -0.10906678 0.008047254
000180 b2 33 a3 3e 9d 21 d9 3d 7d 09 9c 3e 16 fe 71 3d
       0.31875378 0.10602114 0.3047599 0.059080206
000190 33 6c d4 3c 13 c8 e0 b8 87 03 15 bf 7a a0 b8 bb
       0.0259305 -0.00010718419 -0.5820851 -0.0056343647
0001a0 c0 2c 38 bb f5 fb 5d 38 79 5f d0 3e 27 fd ef bb
       -0.0028102845 5.292516e-05 0.4069784 -0.0073238793
0001b0 69 4d 05 3c 4a 13 7d b8 8c 8f 12 be 3c 54 0f 3b
       0.008136132 -6.0337865e-05 -0.14312571 0.0021870276
0001c0 a4 5b 4f 3e 88 3f ab bd af 1d ff 3d 80 42 00 3d
       0.20249802 -0.08361727 0.124568336 0.03131342
0001d0 64 6c b7 3c ce 22 a7 b8 e4 1f 3d be a2 ce 9b bb
       0.022390552 -7.9696634e-05 -0.18469197 -0.004754857
0001e0 3e e3 fa be a5 09 99 3d 13 1d 59 bd 81 58 16 3e
       -0.49001497 0.07472543 -0.053006243 0.14682199
0001f0 32 e5 02 3f 66 af 58 be 3f d8 2f 3e 27 ad 0c 3d
       0.51130974 -0.21160659 0.17172335 0.03434482
000200 d3 d2 ab 3d 00 35 fa b9 0a 88 b4 be d1 58 69 bc
       0.08389821 -0.00047723204 -0.3526004 -0.014242367
000210 4b 80 88 3e 8e b4 24 be f8 6b 23 3e 69 25 85 3e
       0.2666038 -0.16084501 0.15959156 0.26005104
000220 5f 7d 6a 3b 57 6a de b8 ce 92 8d bd be 16 01 bc
       0.0035780293 -0.00010605592 -0.069127664 -0.007878957
000230 d8 ce 49 be 46 fe 49 3a b1 dd 8a 3e 65 9f 2f 3d
       -0.19707811 0.0007705431 0.27122262 0.04287662
000240 9c 32 c6 be bf 03 64 3d 6e 1e 38 3c ea c0 40 3e
       -0.38710487 0.055667635 0.011237724 0.18823591
000250 83 29 0b bd a4 e0 1a 39 e1 c4 8a 3d 29 9f 2a 3c
       -0.033975136 0.0001477027 0.06775833 0.010413923
000260 c0 66 0e 3f 1f df 09 be a1 5d 95 3e f9 1c 90 3c
       0.55625534 -0.1346402 0.29172996 0.01759194
000270 5b 01 9a 3a 60 b2 fc 37 c9 78 14 be 99 e7 97 bb
       0.0011749672 3.0123803e-05 -0.14499201 -0.004635763
000280 76 6f 24 be e3 89 3b 3a 60 6d c7 3d b0 eb f4 3c
       -0.16058144 0.00071540306 0.097376585 0.02989754
000290 cd ac bf 3e 5b 17 68 bd 21 44 e1 3e 8c f2 d0 3d
       0.37436524 -0.0566629 0.4399729 0.10202512
0002a0 8e 88 b4 b9 58 3f f3 36 0f 77 a0 3e a6 57 98 bb
       -0.00034434017 7.2493385e-06 0.31340834 -0.0046491204
0002b0 97 45 84 3e e4 54 9a 3d 31 88 41 3e 21 4b be be
       0.25834343 0.07535723 0.18899609 -0.37166694
0002c0 11 04 09 3d 3e ee 09 b9 6e a9 87 be fa 68 47 bc
       0.033451144 -0.0001315409 -0.26496452 -0.012171024
0002d0 fa 78 3f bc 4e f9 0d 38 3a e6 c7 bd 8d 10 a6 39
       -0.011686558 3.3849203e-05 -0.09760709 0.0003167432
0002e0 0f c3 d7 bc 36 32 2f 39 75 54 d1 3e e4 e0 c1 ba
       -0.026338128 0.00016708006 0.40884748 -0.0014791754
0002f0 61 a2 c3 be c2 7b b8 3a b0 77 55 3e e9 53 9d 3d
       -0.38209823 0.0014074969 0.20846438 0.0768202
000300 fa dc 95 3c f8 9b aa b8 15 8d 89 be 89 15 87 bb
       0.018293846 -8.135283e-05 -0.2686545 -0.0041224402
000310 81 19 84 3c 9b ac 7c b7 03 35 61 be b3 85 f0 bb
       0.016125442 -1.5060558e-05 -0.21992879 -0.007340157
000320 68 a8 05 bb 28 62 ce 35 77 63 21 be c0 d8 84 3b
       -0.0020394567 1.5376763e-06 -0.15760599 0.004054159
000330 b8 da 9e be cd 4f 20 be f1 84 1e 3e c9 cb 72 bd
       -0.31026244 -0.15655442 0.154804 -0.059276376
000340 c5 6f 95 bc eb 46 db 38 de 3e 16 be e4 50 76 3b
       -0.018241772 0.00010455943 -0.1467242 0.0037584836
000350 4b d3 e0 3e db 35 32 3e 0c c4 8e bd 8f 3a 4a be
       0.43911204 0.17403357 -0.06970987 -0.19748901
000360 20 53 0e 3f c5 3b 19 bd 5c 52 3c 3d 23 55 aa 3e
       0.5559559 -0.037410516 0.04597698 0.3326808
000370 51 86 dd 3c d7 18 ea b8 d4 31 a9 be ae ed f1 bb
       0.027041586 -0.00011162616 -0.33045828 -0.00738307
000380 92 24 9b 3d 48 a4 d1 b9 fc ce d0 be 41 a9 0b bc
       0.075753346 -0.00039985985 -0.40782917 -0.00852424
000390 54 9b a1 bc 24 d7 bd 37 dc 76 84 3d a3 bf 23 3c
       -0.019727387 2.2630738e-05 0.06467983 0.00999442
0003a0 aa 8b c2 bd fe 76 05 3a f9 47 48 be 2b 9d 29 3c
       -0.09499295 0.00050912786 -0.19558705 0.010352413
0003b0 78 b7 b3 be 0d b5 07 3e a3 8c 1d be 6d b1 e4 bd
       -0.35100913 0.13252659 -0.1538568 -0.11166654
0003c0 db 60 b7 3b 11 8a 0c 37 39 c4 a5 3d 21 23 bf bb
       0.005596263 8.376796e-06 0.08094067 -0.005833045
0003d0 56 5b 3b be e6 97 ef 3d 79 66 73 be ea eb 95 be
       -0.1829656 0.11698894 -0.23769559 -0.2928155
0003e0 9f f9 ea 3c f0 36 43 b9 f8 b6 a2 bd 29 1f 42 ba
       0.028683482 -0.00018617115 -0.07945055 -0.0007405156
0003f0 fd e7 5e bd 50 6f c9 bd 3d 0f 6e be fd 7a 47 3e
       -0.05442046 -0.09835684 -0.23248 0.1948051

model/dense_1/MatMul f4 [1, 64]
000000 6f a0 c7 bc 78 79 83 b7 e2 9e 3c 3e e0 ca 1e 39
       -0.024368493 -1.567298e-05 0.18419984 0.00015143631
000010 70 16 3c b5 b0 55 d5 37 e0 6b 26 b6 67 6b d0 bd
       -7.006811e-07 2.543148e-05 -2.479872e-06 -0.10176735
000020 b2 c8 f7 3d 6b 70 d0 3d bd 99 ae bc 30 f8 a0 36
       0.120988265 0.10177692 -0.021313543 4.7972644e-06
000030 99 1a f3 ba b1 63 90 b9 af ef d9 3d 74 da bd 38
       -0.0018547355 -0.00027540096 0.10641419 9.052912e-05
000040 60 f3 0e 39 29 ea 1a be ca 4d 11 bd e4 c0 06 3e
       0.0001363284 -0.15128388 -0.035474576 0.1315952
000050 eb 7a 6f 3e 3c 4b 1e be e0 0f 9a bd 65 45 52 b8
       0.23386733 -0.15458387 -0.07522559 -5.013253e-05
000060 06 d9 40 3e ac d7 d4 b7 7f 7e 14 b6 a0 3c e6 b7
       0.18832788 -2.53728e-05 -2.212735e-06 -2.7446367e-05
000070 67 d4 16 3e c6 ef b4 38 9b 9d 4c be c6 a3 f6 3d
       0.14729463 8.62773e-05 -0.19981997 0.12042956
000080 de de 13 b9 74 ff 07 3e 30 01 c8 36 27 6c 36 38
       -0.00014102037 0.13281041 5.9606027e-06 4.3492906e-05
000090 af 8f 0b bd 48 78 15 38 65 23 4b 3e 43 90 6e 37
       -0.034072574 3.563639e-05 0.1983772 1.4219494e-05
0000a0 97 bc f1 38 54 d0 85 3d a8 c0 1d 38 4b 17 63 3d
       0.00011526903 0.06533876 3.7611142e-05 0.055442136
0000b0 bd 9d df 37 77 5b 40 b8 b4 79 ba 38 58 33 83 ba
       2.6657124e-05 -4.586155e-05 8.89184e-05 -0.0010009808
0000c0 90 fe 61 b7 f2 06 8d 37 91 0e c5 b7 74 31 b7 bd
       -1.3470315e-05 1.6811744e-05 -2.3491013e-05 -0.08944979
0000d0 ac a6 a1 37 14 7f 78 3e ac 81 6c 3c 2e 58 2c b7
       1.9270308e-05 0.24267226 0.014435213 -1.027253e-05
0000e0 f4 56 29 b9 6c 5a 43 b7 19 f6 a8 38 b5 39 d2 bd
       -0.00016149489 -1.1643959e-05 8.0567035e-05 -0.10264913
0000f0 34 8c ef 36 14 22 09 3d 85 a1 a4 b8 5b e9 b4 bd
       7.139077e-06 0.033479765 -7.850215e-05 -0.088335715
