device/ProjectMAIL/partition/model_low.tflite (tflite, 2588 bytes, 2 tensors)

model/dense/MatMul f4 [64, 4]
000000 7f d6 3d 3e fa d9 25 ba 73 17 f1 be 61 63 2c bd
       0.18538855 -0.00063267315 -0.47088203 -0.042086963
000010 b3 18 cb 3b 6a e0 50 b8 cd 29 45 be 88 9e fe 38
       0.0061980127 -4.9800066e-05 -0.19254227 0.000121411926
000020 3c 58 3f be 9c f2 2d 3a 30 b9 04 be b6 88 3a 3d
       -0.18686002 0.0006635578 -0.12961268 0.045540534
000030 60 79 9c 3e a1 7c 0d 3e f3 b5 00 be 89 41 b1 be
       0.30561352 0.13817073 -0.12569408 -0.34620312
000040 9b de 4e 3d 0f 34 1d 3e 2c e2 a8 be 59 21 5e bd
       0.050505262 0.1535189 -0.32985055 -0.05423102
000050 c1 4d 9f 3d e5 87 03 be 5b df 89 3e 33 31 99 bd
       0.07778502 -0.12844808 0.2692822 -0.07480087
000060 e0 15 ba be 1a 3f 06 be d9 34 a9 3d 49 80 ae 3e
       -0.36344814 -0.13110009 0.08262033 0.3408225
000070 00 84 49 bc b8 b4 36 3d 05 cf 94 be 3b df 0c be
       -0.012299538 0.04460594 -0.29064193 -0.1375703
000080 01 cd 82 be b3 56 69 3e 54 72 a3 3d 94 a7 17 be
       -0.2554703 0.2278698 0.07980791 -0.1481002
000090 6e c5 00 3f 6d 64 92 bd a5 6b c9 3e 05 1d 94 bd
       0.50301254 -0.07148061 0.3933994 -0.072320975
0000a0 65 0f c9 3d 54 82 e2 bd 9e bf 9a 3d a2 77 87 bc
       0.098173894 -0.11060014 0.07556079 -0.016536538
0000b0 d1 56 a0 be 5a d8 15 be 80 5f 91 bd 6f 8d 47 3e
       -0.31316236 -0.14633313 -0.07098293 0.19487546
0000c0 1a c2 41 3d f8 f3 3d be d2 3e 79 be 59 ed 10 be
       0.04730425 -0.18550098 -0.2434037 -0.14153041
0000d0 5b 60 41 3e d7 6a 21 be ee 1f 63 be bd 49 ad 3c
       0.18884413 -0.15763412 -0.22180149 0.021153325
0000e0 a4 7c 18 3c dd a8 5b b7 0b 69 1c bd f5 e0 5f bb
       0.00930706 -1.3092734e-05 -0.038186114 -0.0034161184
0000f0 e8 f5 71 bd af 30 03 3e e2 25 85 be 10 4b e7 3d
       -0.059072405 0.1281154 -0.26005465 0.11293614
000100 46 3d e1 3d 6a 15 d6 b9 97 d1 85 3e fe dc c4 bc
       0.10998015 -0.00040833215 0.26136467 -0.024031159
000110 24 8d 5e bd 16 f1 4a 39 71 c5 21 bc ea 59 4f 3c
       -0.05433382 0.00019354033 -0.009873734 0.0126557145
000120 2b 71 a1 be 09 21 09 3e 4a f0 1b 3e a7 de 8c b9
       -0.31531653 0.13391508 0.15228382 -0.0002686877
000130 70 7f 21 3c 7b c0 38 37 be a4 f1 3d 16 19 e5 bb
       0.009857044 1.101207e-05 0.11799 -0.006991516
000140 49 fe 92 be 42 c4 81 be 79 9f 2a 3d 14 fa b8 3d
       -0.2870963 -0.25345045 0.04165599 0.090320736
000150 0f 80 83 bc 05 3c 7f 38 07 ec d3 bd ed f4 60 3b
       -0.016052274 6.0852635e-05 -0.10347753 0.0034325675
000160 32 56 69 3d c3 8b 61 38 6d 6d 88 be 6f 99 6f bc
       0.056966968 5.3774344e-05 -0.26645985 -0.014623984
000170 35 dc 8c bd 68 4f 8c 39 9f de 0a bd 28 f1 31 3c
       -0.06877939 0.00026762043 -0.033903714 0.010860719
000180 f0 2f 8a be c9 07 39 be 3b 5b 09 3e 28 8f aa 3e
       -0.26989698 -0.18069376 0.13413708 0.33312345
000190 66 7e 20 bc be fd 95 38 26 75 24 bd fe 16 4d 3a
       -0.009795761 7.152137e-05 -0.040150784 0.00078235555
0001a0 c0 40 08 3e 25 5d 2f bd b9 db 2f be c6 21 33 3e
       0.1330595 -0.04281344 -0.17173661 0.17493352
0001b0 be 97 31 3d e7 f7 86 39 67 b2 eb bd 10 cc 54 bd
       0.043357603 0.00025743173 -0.11508637 -0.05195242
0001c0 1a 5c 62 bc 71 b0 b9 b9 b1 12 06 be c9 54 86 3b
       -0.013815904 -0.0003541741 -0.13093068 0.0040994626
0001d0 2f 8e da 3d be 78 b7 b9 b5 51 b4 bd 6e 92 d8 bc
       0.106716506 -0.0003499444 -0.08804647 -0.02643701
0001e0 57 dc 4b bd 10 84 29 39 12 ac 43 3e 6a d6 32 3c
       -0.04977068 0.00016166293 0.19108608 0.010915378
0001f0 f6 14 ad 3d 98 73 16 bd 77 e9 1f 3e 11 82 5e be
       0.084512636 -0.036731333 0.15616404 -0.21729304
000200 19 8f 82 bd bc 11 6a b8 0f b8 eb 3e 4a b7 74 3c
       -0.0637495 -5.5806464e-05 0.46038863 0.014936278
000210 54 90 8c bd 9c ee d9 3d dc 5d 34 3e c3 e9 36 be
       -0.06863466 0.10641214 0.1761393 -0.1786261
000220 19 cf 70 3d 4d aa 3a b9 cd 9f 65 bd 89 d9 56 bc
       0.058791254 -0.00017801784 -0.0560606 -0.013113388
000230 a4 ca 1e bd be cd 16 39 63 30 17 3e e1 ff 80 3b
       -0.038767472 0.0001438176 0.14764552 0.003936753
000240 e7 35 92 bd 3d ff 64 3e bb 02 2f 3e 10 21 f1 3d
       -0.07139187 0.2236299 0.17090885 0.11773884
000250 a3 bd 98 be 8f ed 82 be cd b6 bb bd da dc ef 3d
       -0.2983218 -0.25571868 -0.09165726 0.11712046
000260 cd e3 b4 bd b4 c4 fc bd 06 1c 3f bd 80 5f 4e bd
       -0.08832512 -0.12342206 -0.046657585 -0.050384045
000270 71 b1 df bd 58 26 82 39 cd e1 f3 3e 96 11 db 3c
       -0.10922516 0.000248241 0.4763321 0.026741784
000280 94 c5 a7 3d 83 c6 a4 bd 02 fb 5e 3e ad 88 e9 3c
       0.08191982 -0.080456756 0.2177544 0.028507555
000290 fd 8b 9f 3d b9 2f 89 b9 a8 83 a5 3e 59 48 92 bc
       0.077903725 -0.00026166232 0.32327008 -0.017856764
0002a0 aa 96 c2 bd 4e 1d a1 3d e6 1f 32 3e e9 0f ab 3d
       -0.09501393 0.078669176 0.17394981 0.08352644
0002b0 2c d1 c6 3c cb 60 bd b7 16 1f 77 3d 5b 92 3b bc
       0.024269663 -2.2575628e-05 0.06033238 -0.011448468
0002c0 1f 99 d6 be 97 73 20 3e 85 60 52 3d 51 ca b0 3d
       -0.41913697 0.15669094 0.05136158 0.08632339
0002d0 f4 cc c2 bc d0 da 5b be c8 c6 0c bc e2 ed 1b 3e
       -0.02377937 -0.21470189 -0.008592315 0.15227464
0002e0 0e 33 b6 bd 3f 7b b1 39 d3 be eb 3e 9c 65 68 3c
       -0.08896457 0.00033851896 0.46044025 0.014184382
0002f0 c8 83 33 bd 98 fb 2b 39 1a 19 13 3e f8 a4 90 3b
       -0.04382685 0.00016401557 0.14365044 0.004414197
000300 26 17 8b 3c 07 d9 9b 3a fe 6a 96 3d ec db 1f be
       0.016978811 0.0011890241 0.07344626 -0.15611237
000310 19 84 86 be 89 17 cc 3d 6a b5 89 bd 21 89 f5 bd
       -0.26272658 0.099654265 -0.06724055 -0.11989046
000320 41 55 f0 3d 75 c9 f6 b9 e0 82 2c 3e 1d 3d e9 bc
       0.11735011 -0.00047070874 0.168468 -0.028471524
000330 60 b0 a1 3e c6 d4 74 be 15 9e ac 3e ea ab 1a 3e
       0.31579876 -0.23909292 0.33714357 0.15104643
000340 9e 8e a6 3d 2b 6f 8c b9 ac 15 4a 3e 14 07 98 bc
       0.08132671 -0.00026785707 0.1973483 -0.018558063
000350 bf ff 39 bd 98 cc 37 39 00 d2 ab 3e 7b a9 b1 3b
       -0.045409914 0.00017528457 0.33558655 0.005421815
000360 86 19 5c 3d 6b 0c 3a b9 a9 64 06 be 9d 5c 43 bc
       0.05373528 -0.00017742968 -0.13124336 -0.011923936
000370 22 aa ea be b0 75 cb 3d 1b ce 21 3e cc d8 b3 be
       -0.45832926 0.099345565 0.15801279 -0.3512634
000380 2e bd 4b 3c 05 d2 a7 39 7c ad 36 3d 80 3f 8c bb
       0.012435241 0.000320092 0.04459904 -0.0042800307
000390 ab d4 f0 bc b4 ea 22 be a5 b4 b3 3d 8f bf 26 bd
       -0.029398283 -0.15909845 0.087746896 -0.04071003
0003a0 66 99 37 bc 48 c4 56 38 92 20 80 3d 3e d8 5f 3a
       -0.011206007 5.1204377e-05 0.06256212 0.00085389975
0003b0 27 f2 4f 3c 87 cf 47 3e b7 03 07 3e fb a6 36 3e
       0.012692011 0.19512759 0.13185011 0.17837135
0003c0 64 69 a4 3e b6 c5 30 3e b1 bd 77 3e 15 00 6e bd
       0.32111657 0.1726292 0.24193455 -0.058105547
0003d0 1c 72 ae 3e a2 ee 3b 3e c5 d7 8e 3e 67 1e 3b bd
       0.34071434 0.1835275 0.27898994 -0.04568329
0003e0 65 c2 91 ba 75 9b 21 38 a7 66 48 3e 4a 93 37 3a
       -0.0011120556 3.8530172e-05 0.19570409 0.0007002844
0003f0 27 fe b1 bd 76 43 ad 39 89 d6 a9 3b 42 f8 bd 3c
       -0.08691054 0.00033047394 0.0051830453 0.023189668

model/dense_1/MatMul f4 [1, 64]
000000 93 9f 1e b9 cb bc 82 b7 74 e0 46 39 16 e6 3a 3e
       -0.000151275 -1.5585121e-05 0.00018966367 0.18251833
000010 af 7d 5a be 99 cd ca 3d 6a b0 0a be 80 3f 05 be
       -0.21337007 0.09902496 -0.13543859 -0.13012505
000020 10 f0 37 be 3e 73 84 3c 19 a2 38 3e 94 50 44 be
       -0.1796267 0.016168233 0.18030585 -0.19171363
000030 fe fd f0 bd ba 3b 70 3e ae ca e9 36 48 c4 62 3e
       -0.11767195 0.23460284 6.967536e-06 0.22145188
000040 62 61 83 b8 7c 06 e7 37 b4 b5 c5 bd 4c 6b 0d b7
       -6.264706e-05 2.7540365e-05 -0.09653798 -8.429237e-06
000050 b8 91 7b be 23 96 b0 37 3a d0 a6 39 a6 95 71 38
       -0.24567306 2.1050748e-05 0.00031817128 5.759825e-05
000060 1f 8d 50 be 90 24 24 37 74 cf c2 bd 9b 5a d5 b8
       -0.20366333 9.783675e-06 -0.09512225 -0.00010173508
000070 4e a2 dd b9 f1 ab bd 38 94 95 8a b8 a6 6e 44 3d
       -0.0004227333 9.044249e-05 -6.608214e-05 0.047957085
000080 fd d2 b8 b9 8f 05 aa bd 72 ef 57 b8 86 d8 62 38
       -0.00035252413 -0.083018415 -5.1482995e-05 5.4084252e-05
000090 4e b9 45 be e9 90 66 be 38 ae b5 bd 2f 97 a8 b9
       -0.1930897 -0.22516216 -0.0887112 -0.00032156098
0000a0 7a c6 2c 3e c0 7d 0b 34 3e 92 4e 3e 8c 41 2e b7
       0.16872588 1.2991131e-07 0.20172974 -1.03864695e-05
0000b0 b7 ad 66 be c4 26 36 be 86 3e 05 b8 5a 38 85 38
       -0.22527204 -0.17788225 -3.17679e-05 6.3524305e-05
0000c0 5a c3 4f b9 d2 b2 36 be 82 40 1d b8 99 83 80 3e
       -0.00019813832 -0.17841652 -3.7491795e-05 0.251004
0000d0 fc 0f c3 36 d6 22 62 b8 48 05 94 38 57 78 6a bd
       5.8133137e-06 -5.3915042e-05 7.058174e-05 -0.05724367
0000e0 dc 53 aa 39 b4 7e 1f 3e 4b 0e 04 37 2e 4d 52 be
       0.00032487407 0.15575677 7.871141e-06 -0.20537254
0000f0 97 31 4b 3e b7 d2 38 3e 49 46 36 38 86 fc ae 38
       0.19843136 0.18049131 4.345764e-05 8.344003e-05
