device/ProjectMAIL/partition/model.tflite (tflite, 2976 bytes, 3 tensors)

model/dense/BiasAdd/ReadVariableOp f4 [64]
000000 b5 27 85 3d 00 00 00 00 00 00 00 00 13 c8 27 bf
       0.06501714 0.0 0.0 -0.65539664
000010 9f d2 fe be 87 be 12 bc 00 00 00 00 00 00 00 00
       -0.49770066 -0.008956558 0.0 0.0
000020 e2 65 21 bf f9 16 60 3e 00 00 00 00 2e 5e df bc
       -0.63046086 0.21883763 0.0 -0.027266588
000030 cd 3b 18 bf fc 4c fa bd e9 d5 8f bd a1 9c 08 3f
       -0.5946625 -0.12221715 -0.07023222 0.53363997
000040 3c 72 06 3e 00 00 00 00 00 00 00 00 e8 ba 1f bf
       0.13129514 0.0 0.0 -0.6239457
000050 c4 30 da 3f f3 dd 88 be 06 87 a4 be 2b eb 24 3f
       1.7046132 -0.26731834 -0.32134265 0.6442134
000060 23 50 70 3d 00 00 00 00 c1 af cf be cd 22 06 3f
       0.058670174 0.0 -0.40563777 0.5239685
000070 c0 fe e4 3d 7e 33 0a 3f 98 16 36 be 48 bf d5 3e
       0.11181402 0.5398482 -0.17782056 0.417475
000080 00 00 00 00 00 00 00 00 65 d1 29 bf b7 2b 77 3d
       0.0 0.0 -0.66335136 0.060344424
000090 40 2b 20 bf 91 c5 20 bf 24 10 c5 3e 83 31 01 bf
       -0.62565994 -0.6280146 0.38488877 -0.50466174
0000a0 1d 22 6f bf c9 bf 29 bf 00 00 00 00 af 6e 92 be
       -0.9341143 -0.66308266 0.0 -0.2860007
0000b0 f9 26 34 be 13 ab 1c bf 0e 02 8d bd 00 00 00 00
       -0.17592992 -0.6119854 -0.068851575 0.0
0000c0 97 5e 3e 3e 96 21 e4 3d be 64 05 3f 7d 61 d5 be
       0.1859077 0.111392185 0.52106845 -0.4167594
0000d0 26 de 05 be 00 00 00 00 00 00 00 00 90 fa 32 be
       -0.13073024 0.0 0.0 -0.17478395
0000e0 43 c0 09 3f 5a 7f 1e bf 01 30 07 3f 2a e0 08 be
       0.53808993 -0.61913073 0.52807623 -0.13366762
0000f0 d4 56 74 bd df 13 b3 be 90 6f f9 3e d0 ef a9 be
       -0.05965312 -0.34976098 0.48717928 -0.33190775

model/dense/MatMul f4 [64, 4]
000000 da 3e 99 3f d0 0b 1b bd 4f c6 4f 40 53 e2 83 3e
       1.1972306 -0.037853062 3.2464788 0.2575861
000010 40 05 1b 3d 01 dd 32 be e6 13 a3 bd 18 3f 0b bd
       0.037846804 -0.17467119 -0.0796278 -0.033995718
000020 bc fd 2d 3e 5c 3a 65 bd ec a6 43 3e 44 a1 66 be
       0.16991323 -0.05596386 0.19106644 -0.22522455
000030 f0 16 40 bf d5 79 58 3e 0f a2 90 be 4c b0 5a 3e
       -0.75035 0.21140225 -0.2824864 0.21356314
000040 20 6a cd be e4 5b 32 3b ff 9e aa be 04 17 81 be
       -0.4012003 0.0027215416 -0.3332443 -0.25212872
000050 97 60 7d bd ff b8 92 be 11 0e 8e 3b 13 52 88 3c
       -0.061859693 -0.28656766 0.004335173 0.016640699
000060 cf 15 10 be 78 fc 1c bd 28 5d 3a be 85 6b 07 be
       -0.1407082 -0.03832671 -0.18199599 -0.13224609
000070 60 8a 88 3c 84 ef 74 bd ec 40 81 be 47 64 84 be
       0.016667545 -0.059798732 -0.25244844 -0.25857756
000080 7a f3 9e be ee b8 67 3d bd 06 16 be ef 15 3a 3e
       -0.31045133 0.056572847 -0.14651008 0.1817243
000090 40 60 26 bf c7 5a de bd 96 e6 82 3f 72 38 f6 3e
       -0.64990616 -0.10857158 1.0226619 0.4808994
0000a0 ea f5 96 be 20 a2 e3 bc b0 64 3c bd ac d2 40 bd
       -0.29484493 -0.027787268 -0.04599446 -0.047075912
0000b0 51 9f 42 be 25 e2 2c be 2c 96 ad be f8 77 53 3d
       -0.19006087 -0.16883142 -0.33903635 0.051628083
0000c0 64 7d 43 bf ac e4 c9 ba 60 db a6 be 97 c1 61 3e
       -0.76363206 -0.0015403233 -0.32589245 0.22046505
0000d0 2a 8f f2 be d5 17 42 be b9 61 36 3e d9 12 04 3e
       -0.4737485 -0.18954404 0.17810716 0.12897815
0000e0 22 2b 1f 3e 84 51 29 be 5e 6b 23 be 1a d9 41 bd
       0.15543798 -0.16535002 -0.15958926 -0.047326185
0000f0 56 be e6 3e a3 e3 6e 3e 0b 63 2b be 3a b2 d4 be
       0.4506709 0.23329024 -0.16737 -0.41542226
000100 af 01 a4 3e 61 eb ad be b6 e2 74 be c6 8e b3 3e
       0.32032534 -0.33968642 -0.23914608 0.35069865
000110 bb df 81 be 59 7a 28 be 54 68 30 3e 8a 72 e5 bd
       -0.25366005 -0.16452922 0.17227298 -0.11203487
000120 08 db a0 3d e6 1c 9f bd 78 da 5a 3e ec 4c c7 bd
       0.07854277 -0.07769184 0.21372402 -0.097314686
000130 90 fc 38 bf 43 03 49 3e 24 2b 5f be aa 73 8b 3e
       -0.7226038 0.1963015 -0.217938 0.27236682
000140 82 ce b5 3f 3a 29 d9 3b 17 66 9f 3f 22 71 9e bf
       1.4203646 0.006627229 1.245303 -1.2378275
000150 76 13 dc be b1 89 e6 3a 09 74 69 3d cc d2 2f bd
       -0.42983598 0.0017588643 0.056995425 -0.04292564
000160 b6 01 c8 be bf 68 06 3b 79 d6 65 be 2f c0 a0 be
       -0.39063805 0.002050921 -0.22445096 -0.31396624
000170 d5 fc 07 3f 89 27 a9 bc 73 b1 97 bf 20 65 23 3f
       0.53120166 -0.020648735 -1.1851028 0.6382618
000180 13 03 10 bf f6 11 3b be 99 fe 8b 3e 07 e1 98 3e
       -0.5625469 -0.1826857 0.2734268 0.29859182
000190 45 9e 09 be 71 d4 23 be 20 2f ff bd a0 db 3d bc
       -0.13439281 -0.15999009 -0.1246016 -0.011588007
0001a0 bc 51 ca be 8d 54 88 39 8a 08 d6 be c1 ab 37 3d
       -0.39515483 0.00026002937 -0.4180339 0.04484153
0001b0 2a 6f a9 3d c0 a1 39 3e d8 96 03 be 54 8b 71 be
       0.08273156 0.18128109 -0.12850511 -0.23588306
0001c0 86 f8 42 be 5a 41 8f 3a 6f 7b 52 3e 77 02 50 be
       -0.19040117 0.001092951 0.20554899 -0.2031344
0001d0 64 2e 0c 3f 0f 7b 3c 3e 33 99 53 3e 33 7c 1e bd
       0.54758286 0.18406318 0.2066391 -0.038692664
0001e0 0a d5 3b bd ea a0 ef b9 cc 02 49 bd ff ac 1d be
       -0.045857467 -0.00045705523 -0.049074933 -0.15398024
0001f0 b7 31 22 3e f2 a0 37 bd 34 fc 83 bf 67 d4 8d bd
       0.15839277 -0.044831224 -1.0311341 -0.06925278
000200 04 7c 64 3e dd 00 3b be 40 ae e9 3b af cf 8a be
       0.22312933 -0.18262048 0.007131368 -0.27111575
000210 90 7e 92 3c 28 22 6e be c2 b3 95 3e 2c e9 10 be
       0.017882615 -0.23255217 0.29238707 -0.14151448
000220 0c aa 22 bf 53 52 be 3d e7 b1 0c bf 9c cf 5d 3e
       -0.6354072 0.09293046 -0.5495896 0.21661228
000230 90 5e ef bd c2 be 2c 3a d6 3d 1b 3d 0e 88 02 be
       -0.11687958 0.00065897044 0.03790077 -0.12747213
000240 2a 22 e8 be a3 ef 51 3e dc 87 d4 bd b2 62 cc bd
       -0.45338565 0.2050157 -0.103774756 -0.09979762
000250 51 30 d7 be c0 be 6f 3e a9 c3 ab be d9 1d e2 bd
       -0.4202905 0.23412609 -0.33547714 -0.11040849
000260 5d 34 f7 3e b2 d2 a8 bb 7a f8 20 be db 7b 4c be
       0.48282138 -0.00515207 -0.15719786 -0.19969122
000270 56 17 1d bf b8 f4 b9 3a d4 9a f2 be 50 28 fc 3b
       -0.6136373 0.0014187312 -0.4738375 0.0076952353
000280 77 0c 91 3c d6 6b 6f bd 83 1f 38 3e 40 af b8 3e
       0.017706139 -0.05845245 0.17980771 0.36071205
000290 51 c2 02 bf e2 dd 2c bc a3 85 35 be 7d eb 1c 3e
       -0.51077753 -0.010550948 -0.1772676 0.15324207
0002a0 6c 41 38 be 74 f3 91 bd 02 d7 57 be 65 b8 2c be
       -0.17993706 -0.07126513 -0.21078113 -0.16867216
0002b0 94 ad 66 be 74 47 bf 3a eb d6 8a bd 26 8a 85 bd
       -0.22527152 0.0014593438 -0.067792736 -0.0652049
0002c0 d5 79 34 be d5 3e 6d be 39 2f 84 3e 07 04 40 3d
       -0.176246 -0.231685 0.25817278 0.04687884
0002d0 0e ef 21 bf e5 01 35 3e e6 ea 83 be b8 08 af 3e
       -0.63255394 0.17676504 -0.2576515 0.3418634
0002e0 cc f6 ee 3d ef dd 4a be 78 31 48 3e f1 52 2c bd
       0.116681665 -0.19811223 0.19550121 -0.042071287
0002f0 5c c3 78 be f0 ba 2d be 38 f8 2a 3d 98 c3 28 3d
       -0.24293274 -0.16965842 0.041740626 0.041202158
000300 8c bc e9 3d d2 ac 63 ba 5d 92 c2 3c da 6f 50 be
       0.114129156 -0.0008685115 0.023751432 -0.20355168
000310 d4 14 88 be 95 74 e0 39 f4 b0 e8 3d 9c 47 46 be
       -0.2657839 0.0004281147 0.11361876 -0.19363254
000320 e3 b7 fd 3e 2b fa 1d 3e d2 17 1d bd 11 3f 8b bd
       0.49554357 0.15427463 -0.038352795 -0.06799138
000330 bb 9a 2e be 7e 2d 88 3a 8b 8c c7 bd 8c fd c4 be
       -0.17051212 0.0010389534 -0.09743603 -0.3847469
000340 ba e5 d9 bc f4 a5 33 bf ab f4 01 3e 09 76 ec 3c
       -0.0265988 -0.701751 0.1269099 0.028864877
000350 7c b8 33 be bf c3 88 be 90 54 d1 bc 2e ba 6a be
       -0.17550844 -0.26711842 -0.025553018 -0.22922584
000360 f0 7f dc bc aa d7 64 be bc 9b 63 3e 08 2c 4a bd
       -0.026916474 -0.22347894 0.22227377 -0.049358398
000370 db 63 58 be e0 68 35 be e4 7a 41 3d 82 45 73 3d
       -0.21131842 -0.17715788 0.04723634 0.05939246
000380 4b a4 d3 3e 95 62 03 3e 20 01 56 3e a8 81 95 be
       0.41336283 0.12830575 0.20898867 -0.29200482
000390 3c 16 10 bf 3a f0 b1 3d eb 81 e2 be a0 05 2d bd
       -0.56283927 0.08688398 -0.44239745 -0.042241693
0003a0 29 c4 cb 3d e3 6b 68 3e f7 e1 87 bd c3 aa cc 3c
       0.09949524 0.22697406 -0.06634896 0.02498377
0003b0 6c 37 8e be a9 73 a8 3c 79 59 52 3e c0 52 69 bf
       -0.2777666 0.020562964 0.20541944 -0.9114189
0003c0 99 69 05 bd 83 7c b3 be 0d 55 49 3e 7a 2a 09 bc
       -0.03257141 -0.35055932 0.1966135 -0.008371944
0003d0 78 a3 76 bc fc 10 e9 ba 1b 9e 1c 3c e3 b7 9b be
       -0.015053622 -0.0017781551 0.00955918 -0.30413732
0003e0 97 ae 5c 3e 9b 1f 8f 3d 5a 6b 85 3d 92 88 59 bd
       0.21550976 0.0698845 0.06514616 -0.05310876
0003f0 c6 a0 00 3f 20 9b 46 bd c5 fb a2 3d 01 06 bb 3e
       0.5024532 -0.048487782 0.079581775 0.36528018

model/dense_1/MatMul f4 [1, 64]
000000 92 99 84 bd a8 c5 7f 3e 00 40 36 3e d5 0c de bd
       -0.06474604 0.24977744 0.17797852 -0.10842291
000010 61 1c 71 b8 77 84 82 bd 23 a1 79 be e8 5e 0c 3d
       -5.7485307e-05 -0.06372922 -0.24377875 0.034270197
000020 38 92 03 be 08 96 ff 3d 04 67 c4 3d fd 81 5e 3c
       -0.12848747 0.12479788 0.09589961 0.013580796
000030 2d 7e 4c bc 65 2c 3a 3b 90 4a 18 ba 71 ba 7e 3e
       -0.0124812545 0.002840781 -0.00058094505 0.24875809
000040 22 24 07 be 78 2a 6b 3e 00 50 1b ba d9 cc 4b be
       -0.13197377 0.2296542 -0.00059247017 -0.19902362
000050 e6 54 65 be de 7a 2f bb 26 c0 e6 3a e3 f4 1b 3e
       -0.22395667 -0.0026776115 0.0017604872 0.15230136
000060 60 d4 10 3d a0 9b 2d bc 18 fe f2 bb 2a 6a 05 3e
       0.035358787 -0.010596186 -0.0074155442 0.1302878
000070 2a 7b c1 3d 17 8a 62 3e 8e 90 06 bc b5 8c f1 bc
       0.0944732 0.2212299 -0.008213175 -0.02948604
000080 88 b2 4e 3d d1 3b 89 be cd 19 aa bd 28 68 ec 39
       0.05046323 -0.2680345 -0.08305702 0.0004509103
000090 4c fc 2d be dc 7f 0c be 51 44 21 bc 8f e8 05 bc
       -0.16990775 -0.1372065 -0.009842948 -0.008173122
0000a0 61 f1 39 bd 3b b3 34 3a 90 f8 02 3e cd 5f 9e 39
       -0.045396212 0.00068931625 0.12790132 0.00030207486
0000b0 ed ee c8 3b 34 fe 8c be 01 0e f4 39 b2 51 d1 bd
       0.006131998 -0.27537692 0.0004654974 -0.1022066
0000c0 d8 00 70 3a 10 69 27 38 ea 8d 0f 3e bc 68 17 3c
       0.0009155399 3.991375e-05 0.1401898 0.009241279
0000d0 41 84 d4 3a ea 60 18 be 51 40 20 be 24 e5 c9 ba
       0.0016213731 -0.1488072 -0.15649535 -0.0015403372
0000e0 d0 63 41 3e 06 72 51 be 10 f1 2a 3e 3a c3 4e 3d
       0.18885732 -0.20453653 0.1669352 0.05047915
0000f0 c6 0c 2f 3e 5e 8a fc bb 40 53 83 3d 05 d2 78 bd
       0.17094716 -0.0077069243 0.06412363 -0.060747165
