device/ProjectMAIL/partition/model.tflite (tflite, 32272 bytes, 7 tensors)

model/lstm/Read_2/ReadVariableOp f4 [256]
0	0x4069de90	3.6542091
1	0x3ed7241c	0.42019737
2	0x3e7d1a2e	0.24717018
3	0x3dd85151	0.10562385
4	0x3e956915	0.29181734
5	0x3d3d85bd	0.04627012
6	0xbe0cd626	-0.13753566
7	0x3e90191b	0.28144154
8	0x3f40be26	0.75290143
9	0x3ea38afc	0.31941974
10	0x3f28e070	0.65967464
11	0x3f1dd83c	0.6165807
12	0x3e989fa9	0.2980931
13	0xbc96ae51	-0.018393667
14	0x3f479192	0.779565
15	0x3ea416e2	0.32048708
16	0x3f209175	0.6272195
17	0x3f8924e6	1.0714386
18	0x3e8b58bc	0.27216136
19	0x3ecfde56	0.40599316
20	0x3f66b68c	0.90122294
21	0x3e9d00f8	0.30664802
22	0x3e970352	0.2949472
23	0x3dc15a2f	0.09441029
24	0x3d913a0f	0.07091152
25	0x3da2deca	0.0795265
26	0x3d2148d1	0.039376084
27	0x3f41c8d1	0.75697047
28	0x3f7e258c	0.9927604
29	0x3b9b2964	0.0047351588
30	0x3f94b567	1.161786
31	0x3f3af06e	0.73023117
32	0x3e84b148	0.25916505
33	0x3e3096f3	0.17245083
34	0x3e6f0855	0.23343022
35	0x3e9ccd1e	0.30625242
36	0x3fedf2c0	1.8589706
37	0xbf096a98	-0.53678274
38	0x3e8367ce	0.25665134
39	0x3f17a21a	0.5923172
40	0x3ef790b8	0.483526
41	0x3f4fa82e	0.81115997
42	0x3e8786b4	0.26469958
43	0x3f2d302b	0.67651623
44	0x3ec72355	0.38894144
45	0x3f7e7311	0.9939433
46	0x3efadf43	0.4899846
47	0x3e1cb40c	0.15303057
48	0xbdc43845	-0.09581045
49	0x3ecf8734	0.4053284
50	0x3f6cf3fb	0.92559785
51	0x3e0df473	0.13862781
52	0xbea11c9c	-0.3146714
53	0xbe7be7a2	-0.2460008
54	0x3f2832e5	0.6570266
55	0x3e714dc4	0.23564821
56	0x3f5cc212	0.8623363
57	0x3e90b58d	0.28263512
58	0x3ec83245	0.39100853
59	0x3f009895	0.5023282
60	0x3f9c7fa3	1.2226452
61	0x3e2b753e	0.16743943
62	0x3f29264a	0.6607405
63	0x3f85bba9	1.0447894
64	0x3f99bf81	1.2011567
65	0x3f8944fb	1.0724176
66	0x3f883fee	1.064451
67	0x3f46ec80	0.7770462
68	0x3f9ba30a	1.215913
69	0x3f4fa7d9	0.8111549
70	0x3fc92af0	1.5716228
71	0x3f9c68b4	1.2219453
72	0x3f8ae70f	1.0851763
73	0x3f94eb61	1.1634332
74	0x3fabe3f3	1.342894
75	0x3fc3a9b3	1.5286163
76	0x3fb146a6	1.3849685
77	0x3f44dfa3	0.7690374
78	0x3fd1b824	1.638432
79	0x3f8fe548	1.1241846
80	0x3f86eb68	1.054059
81	0x3f8bad0d	1.0912186
82	0x3f59a1b3	0.8501236
83	0x3f8fce74	1.123488
84	0x3f36af26	0.71361005
85	0x3f362274	0.7114632
86	0x3f97e08f	1.1865405
87	0x3f7edc92	0.99555314
88	0x3fcc7d5c	1.5975757
89	0x3fb562d1	1.4170781
90	0x3f882bba	1.0638344
91	0x3f5ac083	0.8545
92	0x3f6f1b86	0.9340137
93	0x3f78aafb	0.97135895
94	0x3f0573db	0.52129906
95	0x3fa60ab3	1.2972015
96	0x3f2f5e33	0.6850311
97	0x3ffe1c6e	1.9852426
98	0x3f8d2427	1.1026658
99	0x3f8d4b6c	1.1038642
100	0x3fce1fe8	1.6103487
101	0x3fce22de	1.6104391
102	0x3fc5817b	1.5430139
103	0x4013fb49	2.3122122
104	0x3f8e011c	1.1094089
105	0x3fc2dcb9	1.5223609
106	0x3f9cbe13	1.2245506
107	0x3f8e01a4	1.1094251
108	0x3fdb4eb3	1.7133392
109	0x3f976283	1.1826938
110	0x3f671c96	0.90277994
111	0x3fccacaa	1.5990193
112	0x400ada65	2.1695797
113	0x3fa0e2e3	1.256924
114	0x3f6f44b5	0.93464214
115	0x3f889412	1.0670187
116	0x3f3b96be	0.7327689
117	0x3f7e07b5	0.9923051
118	0x3f393bd7	0.72356933
119	0x3fb31186	1.3989723
120	0x3f6df652	0.9295398
121	0x3fa62867	1.298108
122	0x3fd86a43	1.6907429
123	0x3fba3d4a	1.4549954
124	0x3fd926b8	1.6964941
125	0x3fcaf440	1.5855789
126	0x3ef0def7	0.4704511
127	0x3fa51aa8	1.289876
128	0x3eac55f8	0.3365934
129	0x3db15dca	0.08660467
130	0xbebce191	-0.36890844
131	0xbe86ae3a	-0.263048
132	0x3dfe3e66	0.12414245
133	0x3e1df32e	0.15424797
134	0xbe38e18d	-0.18054791
135	0x3ef5796b	0.47944197
136	0xbef8a89f	-0.48566148
137	0xbeb4fb36	-0.3534791
138	0xbf417883	-0.7557451
139	0xbf21cc56	-0.63202417
140	0x3e93730e	0.28798717
141	0xbed66c14	-0.41879332
142	0x3f2203fe	0.6328734
143	0x3f37df78	0.7182536
144	0xbf57e6e1	-0.8433667
145	0x3f880cd8	1.062892
146	0x3ba61221	0.005068079
147	0x3df4fea0	0.11962628
148	0x3d7a144f	0.061054524
149	0xbdb5d680	-0.08878803
150	0xbf07b90b	-0.5301673
151	0xbea41849	-0.32049778
152	0xbd0c7b16	-0.03429707
153	0x3e6c3987	0.2306882
154	0xbeaab8da	-0.33344156
155	0x3f218523	0.63093776
156	0x3f82454d	1.0177399
157	0xbd9ab7ac	-0.07554564
158	0x3ddb2e69	0.107022114
159	0x3f3709ef	0.7149953
160	0x3ed39ca9	0.4133046
161	0xbfec7665	-1.8473631
162	0x3d53b304	0.051684394
163	0xbec3f48b	-0.3827251
164	0x3d9d6289	0.0768481
165	0xbc274eb0	-0.010211632
166	0x3f8f8a41	1.1214067
167	0x3f7ad4bc	0.97980857
168	0xbf1221c7	-0.5708279
169	0x3ec963ed	0.3933405
170	0xbe3f60e8	-0.1868931
171	0x3eba5504	0.36392987
172	0xbf35eb96	-0.710626
173	0x3f4972c5	0.7869075
174	0xbec3b2af	-0.38222262
175	0x3eb50fb1	0.35363534
176	0xbf5240a7	-0.821299
177	0xbe8927fd	-0.2678832
178	0xbe85cecf	-0.26134345
179	0xbeb55785	-0.35418335
180	0x3e99f33c	0.30068386
181	0xbea07c19	-0.3134468
182	0xbee7e468	-0.45291448
183	0xbe67c596	-0.22633967
184	0x3ecbf5cf	0.39835975
185	0x3e0ea620	0.13930559
186	0x3f052749	0.5201307
187	0x3e6d837d	0.2319469
188	0x3f9fdd9f	1.2489508
189	0x3ec05cb1	0.37570718
190	0x3f438692	0.76377213
191	0x3f8c8bcb	1.0980161
192	0xbdbd505b	-0.09243842
193	0x3e9df386	0.30849856
194	0x3f50034e	0.8125504
195	0x3ef7050a	0.48246032
196	0x3dd4765d	0.103741385
197	0x3ebadfd0	0.3649888
198	0xbe4e4413	-0.20143156
199	0x3ea0479b	0.3130463
200	0x3e7f1c8e	0.24913236
201	0x3f0efabf	0.5585136
202	0x3f82852b	1.019689
203	0x3f44f0bb	0.76929826
204	0x3eeab1f2	0.45838886
205	0x3f65dbd1	0.8978854
206	0x3f40897b	0.7520978
207	0xbe1b3a61	-0.15158989
208	0x3f4ee5d3	0.80819434
209	0x3f882f3b	1.0639414
210	0xbdec9856	-0.11552493
211	0x3f376a49	0.71646553
212	0xbd93b010	-0.07211316
213	0x3e339069	0.17535557
214	0x3eb9bc22	0.36276346
215	0x3e11a9f8	0.14224994
216	0xbe420701	-0.18947984
217	0x3d6480e8	0.055786997
218	0x3e7fd782	0.24984553
219	0x3f503fa7	0.81347126
220	0x3f4276c4	0.7596247
221	0x3f624d3e	0.8839911
222	0x3f837d8d	1.027269
223	0x3f34783d	0.7049597
224	0x3f27f91a	0.65614474
225	0x3ee432d1	0.4457002
226	0x3f74b9d3	0.95596045
227	0x3f6d9ae9	0.928145
228	0xbf86f927	-1.0544785
229	0xbe24e463	-0.16102748
230	0x3f770d24	0.96504426
231	0x3f4b6abb	0.7945973
232	0x3f72bfe3	0.94824046
233	0x3e36b112	0.17840984
234	0x3f4a22fe	0.78959644
235	0x3ecf39f3	0.404739
236	0x3e4da341	0.20081808
237	0x3f301a04	0.68789697
238	0xbb56170c	-0.0032667546
239	0xbdaf5cc3	-0.08562615
240	0x3f2128d1	0.62952906
241	0xbf1bb2c4	-0.6081965
242	0x3f10d4ec	0.56574893
243	0x3e21db35	0.15806277
244	0xbd80498a	-0.062640265
245	0x3f629255	0.88504535
246	0x3f668b0e	0.9005593
247	0xbd984fc4	-0.07437089
248	0x3ea6efce	0.3260483
249	0x3eea2d2e	0.45737594
250	0x3d38b96a	0.0450987
251	0xbf2c51d8	-0.67312384
252	0xbe9f0ad4	-0.3106295
253	0x3e8b924d	0.27260056
254	0x3f152c1e	0.5827044
255	0x3ed1decf	0.40990302

model/dense/MatMul1 f4 [1, 64]
0	0x3fdf1d10	1.7430744
1	0x3f6672c3	0.9001886
2	0x3f9c6de6	1.2221038
3	0x3f6d57e9	0.92712265
4	0x3f486131	0.782733
5	0x3f8285a0	1.0197029
6	0xbeb88fd3	-0.3604723
7	0x3f5eeb77	0.8707804
8	0xbfc0aa3b	-1.505195
9	0xbf331c29	-0.69964844
10	0xbf6f2551	-0.93416315
11	0xbef4e6e5	-0.4783241
12	0x3ecfd26b	0.40590224
13	0x3ff76d2e	1.9330194
14	0x3e0882d2	0.13331154
15	0x3ff34dd4	1.9008126
16	0xbfff9fe7	-1.9970673
17	0x3f9455ab	1.1588644
18	0xbf706d37	-0.9391665
19	0x3fc039a4	1.501759
20	0xbfa0ad3e	-1.2552869
21	0x3fa7bf10	1.3105183
22	0xbf28abfb	-0.6588742
23	0x3fcef41b	1.6168245
24	0x3dd6d601	0.10490037
25	0x3f57f735	0.84361583
26	0xbf87a3ae	-1.0596826
27	0xbf4380a7	-0.7636818
28	0x3f2958dd	0.6615122
29	0x3ff8662b	1.9406179
30	0x3fdbdb97	1.7176389
31	0x3f3a11fb	0.72683686
32	0xbf1b24ab	-0.60602826
33	0xbf2abeb9	-0.6669727
34	0xbfda21c6	-1.7041557
35	0x3ff9ff0a	1.9530957
36	0x3fcdba50	1.6072483
37	0xbfd0cff1	-1.6313459
38	0x3fc36cd3	1.5267586
39	0x3ec2c3ee	0.38040107
40	0xbf999ac9	-1.2000362
41	0x3f987a2a	1.1912282
42	0xc0145e59	-2.3182585
43	0xbf2b8755	-0.67003375
44	0xbd9b1d9c	-0.07574007
45	0x3fb096aa	1.3795979
46	0xbf3c0a6f	-0.7345342
47	0x3ef578b9	0.47943667
48	0xbf5247db	-0.8214089
49	0x3fd95349	1.6978542
50	0xbfda2c61	-1.7044793
51	0x3f703ed6	0.9384588
52	0xbf9abebc	-1.2089458
53	0x3fe6ca97	1.8030576
54	0x3f8ea6d7	1.1144665
55	0xbf71dcd7	-0.944776
56	0xbfcb3daa	-1.5878193
57	0x3f52b94b	0.82313985
58	0x3fd2e210	1.6475239
59	0xc00b906f	-2.1806905
60	0x3fa0aed3	1.2553352
61	0xbf375aff	-0.71623224
62	0x3f69c2d9	0.9131294
63	0x3fbfeb96	1.499377

model/dense_1/MatMul f4 [64, 8]
0	0xbd819726	-0.063276574
1	0x3e586f98	0.2113632
2	0xbb929a24	-0.0044739414
3	0xbde68cfc	-0.112573594
4	0x3d97e681	0.07417012
5	0x3e47a42a	0.19496217
6	0x3e7fd3bc	0.24983114
7	0xbf77ff9c	-0.96874404
8	0x3c2e5cf3	0.010642278
9	0x3b931603	0.004488708
10	0x3cf2fd62	0.029661838
11	0xbe9a5f23	-0.3015071
12	0x3caf3c02	0.021390919
13	0xbdb57f4e	-0.08862172
14	0xbd617b8e	-0.05504947
15	0xbe9cb019	-0.30603102
16	0x3d8f4e3f	0.06997346
17	0x3dc44b1e	0.0958464
18	0xbe9458e7	-0.28974077
19	0xbe95057c	-0.29105747
20	0x3cef4b9f	0.029210864
21	0xbe8ed092	-0.27893502
22	0xbeade35a	-0.33962518
23	0xbfaba1e8	-1.3408785
24	0xbd90a8d8	-0.070634544
25	0x3c384466	0.011246776
26	0xbd969b78	-0.07353872
27	0x3db61693	0.088910244
28	0x3e809efa	0.2512129
29	0x3e618a12	0.22025326
30	0xbd6ee159	-0.058320377
31	0xbf8d4ae2	-1.1038477
32	0x3d846a57	0.06465595
33	0x3b8f69b1	0.004376613
34	0xbe93c42c	-0.28860605
35	0xbc096d37	-0.008387855
36	0xbc68ee9e	-0.014217047
37	0x3dcbe34e	0.09955464
38	0x3c395ed8	0.011314116
39	0xbfac8285	-1.3477331
40	0xbdd75046	-0.10513358
41	0x3e8a9e96	0.27074116
42	0xbde119a8	-0.10991222
43	0x3e57ffb8	0.21093643
44	0x3e87fb37	0.2655885
45	0xbb821703	-0.0039700284
46	0xbd07b632	-0.03313274
47	0xbf954eb3	-1.1664642
48	0x3e3c06f3	0.18362026
49	0x3e4de60b	0.20107286
50	0xbe154a85	-0.14579208
51	0xbe54ea66	-0.20792541
52	0x3d900016	0.070312664
53	0xbd84d74f	-0.06486379
54	0xbe0cabe6	-0.13737449
55	0xbf77d4ed	-0.96809274
56	0xbd6a4be3	-0.057201277
57	0xbe3016a0	-0.17196131
58	0xbe3ad68a	-0.18245903
59	0x3dff4575	0.1246442
60	0x3daf1332	0.08548583
61	0x3da21fc0	0.07916212
62	0xbe36a102	-0.17834857
63	0xbf96e91d	-1.178989
64	0x3e6cfb12	0.2314265
65	0x3e1c8d41	0.15288259
66	0xbea4ff8d	-0.3222622
67	0xbe49bc10	-0.19700646
68	0xbe1dd7dd	-0.15414377
69	0x3e79c070	0.24389815
70	0x3e4af51a	0.19820061
71	0xbf819ae9	-1.01254
72	0xbdce4364	-0.100714475
73	0x3da85d0e	0.08220874
74	0xbcd9b68a	-0.0265763
75	0x3d5b1e8e	0.053495936
76	0x3de228a5	0.110429086
77	0xbd99c9fe	-0.0750923
78	0x3e7a09e9	0.24417843
79	0xbf5f8eff	-0.8732757
80	0xbe3c6130	-0.18396449
81	0xbdb922bc	-0.09039828
82	0xbdbdb9b1	-0.092639334
83	0xbdcc407e	-0.099732384
84	0x3e1c9a4d	0.15293236
85	0x3ca89317	0.02057795
86	0xbdba8326	-0.09107046
87	0xbf8caf19	-1.0990936
88	0xbc8c6534	-0.017138101
89	0x3ea1f2d2	0.3163057
90	0x3e98bec9	0.29833058
91	0xbcaa04f7	-0.02075432
92	0xbc8e1409	-0.017343538
93	0xbd3f167a	-0.046652295
94	0xbe45bf35	-0.19311221
95	0xbf385c40	-0.7201576
96	0xbd89a9ee	-0.06721865
97	0x3e9898fc	0.29804218
98	0x3e0c6387	0.13709842
99	0x3e732c04	0.2374726
100	0x3ebd50b2	0.36975628
101	0x3eaf263f	0.34208867
102	0xbd1bcc2a	-0.038036503
103	0xbf5e2d86	-0.86788213
104	0x3caf70eb	0.021416148
105	0x3e74bd63	0.2390037
106	0x3e335dfc	0.17516321
107	0x3e4b5717	0.19857441
108	0xbe9faf47	-0.31188414
109	0x3dd376f9	0.103254266
110	0x3e2559e6	0.16147575
111	0xbf73164d	-0.94955903
112	0x3d1b512d	0.037919212
113	0xbd4d2ca2	-0.050091393
114	0xbe371ee2	-0.17882875
115	0xbe48fd18	-0.19627798
116	0xbe9f110d	-0.31067696
117	0xbea40725	-0.320367
118	0xbe734bf1	-0.23759438
119	0xbf802826	-1.0012252
120	0xbdefc771	-0.11707962
121	0x3e9b5c05	0.30343643
122	0xbe7131f7	-0.23554216
123	0x3e3bedca	0.18352428
124	0x3e120963	0.14261393
125	0x3d9bac24	0.076011926
126	0x3cbe59a5	0.023236105
127	0x3fa2e831	1.2727109
128	0xbc95f2a5	-0.018304178
129	0xbe8bed3c	-0.27329433
130	0xbd134cd6	-0.03596195
131	0xbe255728	-0.16146529
132	0xbd5c8389	-0.05383638
133	0xbd1ada4d	-0.037805844
134	0xbcc1b405	-0.02364541
135	0x3f4dfc86	0.80463445
136	0x3ca4c49e	0.020113286
137	0x3eb3d2dc	0.3512181
138	0xbb661581	-0.0035108032
139	0xbe4fa657	-0.20278297
140	0x3d8eb928	0.069689095
141	0x3e424026	0.18969783
142	0xbe16fbed	-0.1474454
143	0xbf5ba85d	-0.85803777
144	0x3db3c6d7	0.0877816
145	0x3d09b692	0.03362138
146	0xbdc3437e	-0.095343575
147	0xbe1882c9	-0.1489364
148	0x3e1ea543	0.1549273
149	0x3d579899	0.052635763
150	0xbeaf84c1	-0.3428097
151	0x3f8c042b	1.0938772
152	0xbd910320	-0.07080674
153	0xbb892dbe	-0.004186361
154	0x3e8b2d13	0.27182826
155	0x3ebcd6ee	0.36882728
156	0x3e11b4e9	0.14229168
157	0x3e80b274	0.2513615
158	0x3e8c421c	0.27394187
159	0x3fa285cb	1.269708
160	0xbbfddf28	-0.0077475496
161	0xbe7d832b	-0.24757068
162	0xbebfe60b	-0.37480196
163	0xbe54a898	-0.20767438
164	0xbe29d230	-0.16584086
165	0x3d003794	0.031303003
166	0xbe8b6406	-0.2722475
167	0x3f11ab68	0.5690217
168	0x38e013dc	0.000106848514
169	0xbde7a15f	-0.11310076
170	0xbd580679	-0.052740548
171	0x3e486d52	0.19572952
172	0x3ccd5f25	0.025069783
173	0xbbafc29e	-0.0053637763
174	0x3ce4e5a7	0.027941538
175	0xbbe5dcc0	-0.007014841
176	0xbb2e869c	-0.0026630526
177	0x3e6beb5f	0.23039006
178	0x3eb217e4	0.34783852
179	0x3dde5edd	0.108579375
180	0xbd1459be	-0.036218397
181	0x3bde3095	0.006780694
182	0x3ce0594e	0.027386334
183	0x3bce7d65	0.0063015693
184	0x3e72c3b5	0.23707469
185	0x3debb405	0.115089454
186	0xbe7c50db	-0.24640219
187	0x3dcec455	0.10096041
188	0x3cdef3c9	0.027215855
189	0xbe85a268	-0.2610047
190	0xbdf088f2	-0.1174487
191	0xbf94c40c	-1.1622329
192	0x3e0ecdd3	0.13945703
193	0xbd733b57	-0.059382763
194	0x3d9708d1	0.073747285
195	0x3dc5f0f6	0.096651
196	0xbea07907	-0.31342337
197	0xbe9be91f	-0.30451295
198	0xbecd4da6	-0.40098304
199	0xbf99a822	-1.2004435
200	0xbc6868c6	-0.014185136
201	0x3e88e563	0.26737508
202	0x3eec32e8	0.46132588
203	0x3e9cbab4	0.30611193
204	0xbd31540e	-0.04329305
205	0x3e7a203f	0.24426363
206	0x3e86a06c	0.26294267
207	0xbf79aa64	-0.9752562
208	0x3e21d6d2	0.15804604
209	0xbe5641a0	-0.20923471
210	0xbd9cc08a	-0.076539114
211	0xbe8e89e6	-0.27839583
212	0x3e759651	0.23983122
213	0x3c9c4bd6	0.01907913
214	0xbe061aac	-0.13096112
215	0x3fa131e5	1.2593352
216	0x3b88fd8f	0.004180617
217	0x3ced1139	0.028938876
218	0x3ea6bd29	0.32566193
219	0x3db80e8b	0.08987149
220	0x3e4e4fd5	0.20147641
221	0x3ce04490	0.027376443
222	0x3de2daa8	0.110768616
223	0xbea54870	-0.32281828
224	0x3e1d3c9e	0.15355155
225	0xbe8604e3	-0.26175603
226	0xbe58079a	-0.2109665
227	0xbe69d347	-0.22834502
228	0xbe17fbc6	-0.14842138
229	0xbe4105c6	-0.18849859
230	0x3dcf6ac4	0.10127786
231	0x3f51b434	0.81915593
232	0xbcb2f850	-0.02184692
233	0xbde85a26	-0.113453194
234	0x3e9eadaa	0.3099187
235	0xbcb4dba8	-0.022077397
236	0x3eac8d25	0.33701435
237	0xbe37140b	-0.1787874
238	0x3e0eb682	0.13936809
239	0x3f455d07	0.77095073
240	0xbd9759aa	-0.07390149
241	0x3e4fbcea	0.20286909
242	0x3e59f2ca	0.21284023
243	0x3e3336d5	0.17501386
244	0xbcdfe62f	-0.02733144
245	0x3d0338e8	0.032036692
246	0x3e864cc5	0.26230446
247	0x3fa86894	1.3156915
248	0x3de955b8	0.11393303
249	0x3dad910e	0.084749326
250	0xbe67d15c	-0.22638458
251	0x3e6bfa1a	0.23044625
252	0xbe01405f	-0.12622212
253	0x3d108194	0.035279825
254	0xbe5cd78b	-0.21566598
255	0x3f84d304	1.0376897

model/dense_2/MatMul f4 [1, 64]
0	0xbe7efb95	-0.24900658
1	0xbb1f1706	-0.0024275198
2	0xbdb86b0f	-0.09004795
3	0xbe86d67c	-0.26335514
4	0xbd389863	-0.045067202
5	0xbe13950a	-0.14412323
6	0xbe42f6b5	-0.19039424
7	0xbde6c6f0	-0.11268413
8	0xbe4e8539	-0.20168008
9	0xbd960e4a	-0.07326944
10	0xbe66701b	-0.22503702
11	0xbe08e956	-0.1337026
12	0xbd4a1884	-0.049339786
13	0xbc908dd6	-0.017645758
14	0xbb5a22fd	-0.0033285015
15	0x3e932fee	0.28747505
16	0x3b098a86	0.0020987107
17	0xbb14e3af	-0.0022718718
18	0x3dcaa825	0.09895352
19	0x3defc6cb	0.117078386
20	0x3a1b6a00	0.0005928576
21	0x398ad0cc	0.00026476977
22	0xb8005ef5	-3.0606014e-05
23	0xbe85a6c3	-0.26103792
24	0xbdb0acdc	-0.0862672
25	0xbcf18810	-0.029483825
26	0x3e865e47	0.26243803
27	0xba59e565	-0.00083120755
28	0x3e4bd4ef	0.19905446
29	0x3b3f8a72	0.0029226807
30	0x3e144e3f	0.14482974
31	0x3e696a55	0.22794469
32	0x3e805a55	0.25068918
33	0x3e0b4440	0.13600254
34	0xbe788707	-0.24270259
35	0x3d3da599	0.046300504
36	0x3e0243ab	0.12721126
37	0x3e35c2c6	0.17750081
38	0xbe72e392	-0.23719624
39	0xbb491009	-0.0030679724
40	0x3e517444	0.20454508
41	0xbe19c1b0	-0.15015292
42	0xbe708646	-0.23488721
43	0x3af9e997	0.0019066808
44	0xbb0d640c	-0.0021574525
45	0xba18db37	-0.00058310054
46	0xbb5e8d1c	-0.003395862
47	0x3d28abc6	0.04117944
48	0xbae77304	-0.0017658179
49	0xbb42031a	-0.00296039
50	0x3e8b75c5	0.2723829
51	0xba10c32a	-0.0005522246
52	0xbb844b3e	-0.00403729
53	0x3b03ec68	0.0020129923
54	0xbabaf805	-0.0014264589
55	0xb9b90987	-0.00035293048
56	0x39be97c8	0.0003635271
57	0xbe89c9a1	-0.26911643
58	0x3e2a835c	0.16651672
59	0x3b46dc75	0.0030343805
60	0x3e17c6ad	0.14821883
61	0xb62bb800	-2.5588088e-06
62	0x3e2c0fa7	0.16802846
63	0xbac07747	-0.0014683985

model/lstm/Read_2/ReadVariableOp1 f4 [256]
0	0x4069de90	3.6542091
1	0x3ed7241c	0.42019737
2	0x3e7d1a2e	0.24717018
3	0x3dd85151	0.10562385
4	0x3e956915	0.29181734
5	0x3d3d85bd	0.04627012
6	0xbe0cd626	-0.13753566
7	0x3e90191b	0.28144154
8	0x3f40be26	0.75290143
9	0x3ea38afc	0.31941974
10	0x3f28e070	0.65967464
11	0x3f1dd83c	0.6165807
12	0x3e989fa9	0.2980931
13	0xbc96ae51	-0.018393667
14	0x3f479192	0.779565
15	0x3ea416e2	0.32048708
16	0x3f209175	0.6272195
17	0x3f8924e6	1.0714386
18	0x3e8b58bc	0.27216136
19	0x3ecfde56	0.40599316
20	0x3f66b68c	0.90122294
21	0x3e9d00f8	0.30664802
22	0x3e970352	0.2949472
23	0x3dc15a2f	0.09441029
24	0x3d913a0f	0.07091152
25	0x3da2deca	0.0795265
26	0x3d2148d1	0.039376084
27	0x3f41c8d1	0.75697047
28	0x3f7e258c	0.9927604
29	0x3b9b2964	0.0047351588
30	0x3f94b567	1.161786
31	0x3f3af06e	0.73023117
32	0x3e84b148	0.25916505
33	0x3e3096f3	0.17245083
34	0x3e6f0855	0.23343022
35	0x3e9ccd1e	0.30625242
36	0x3fedf2c0	1.8589706
37	0xbf096a98	-0.53678274
38	0x3e8367ce	0.25665134
39	0x3f17a21a	0.5923172
40	0x3ef790b8	0.483526
41	0x3f4fa82e	0.81115997
42	0x3e8786b4	0.26469958
43	0x3f2d302b	0.67651623
44	0x3ec72355	0.38894144
45	0x3f7e7311	0.9939433
46	0x3efadf43	0.4899846
47	0x3e1cb40c	0.15303057
48	0xbdc43845	-0.09581045
49	0x3ecf8734	0.4053284
50	0x3f6cf3fb	0.92559785
51	0x3e0df473	0.13862781
52	0xbea11c9c	-0.3146714
53	0xbe7be7a2	-0.2460008
54	0x3f2832e5	0.6570266
55	0x3e714dc4	0.23564821
56	0x3f5cc212	0.8623363
57	0x3e90b58d	0.28263512
58	0x3ec83245	0.39100853
59	0x3f009895	0.5023282
60	0x3f9c7fa3	1.2226452
61	0x3e2b753e	0.16743943
62	0x3f29264a	0.6607405
63	0x3f85bba9	1.0447894
64	0x3f99bf81	1.2011567
65	0x3f8944fb	1.0724176
66	0x3f883fee	1.064451
67	0x3f46ec80	0.7770462
68	0x3f9ba30a	1.215913
69	0x3f4fa7d9	0.8111549
70	0x3fc92af0	1.5716228
71	0x3f9c68b4	1.2219453
72	0x3f8ae70f	1.0851763
73	0x3f94eb61	1.1634332
74	0x3fabe3f3	1.342894
75	0x3fc3a9b3	1.5286163
76	0x3fb146a6	1.3849685
77	0x3f44dfa3	0.7690374
78	0x3fd1b824	1.638432
79	0x3f8fe548	1.1241846
80	0x3f86eb68	1.054059
81	0x3f8bad0d	1.0912186
82	0x3f59a1b3	0.8501236
83	0x3f8fce74	1.123488
84	0x3f36af26	0.71361005
85	0x3f362274	0.7114632
86	0x3f97e08f	1.1865405
87	0x3f7edc92	0.99555314
88	0x3fcc7d5c	1.5975757
89	0x3fb562d1	1.4170781
90	0x3f882bba	1.0638344
91	0x3f5ac083	0.8545
92	0x3f6f1b86	0.9340137
93	0x3f78aafb	0.97135895
94	0x3f0573db	0.52129906
95	0x3fa60ab3	1.2972015
96	0x3f2f5e33	0.6850311
97	0x3ffe1c6e	1.9852426
98	0x3f8d2427	1.1026658
99	0x3f8d4b6c	1.1038642
100	0x3fce1fe8	1.6103487
101	0x3fce22de	1.6104391
102	0x3fc5817b	1.5430139
103	0x4013fb49	2.3122122
104	0x3f8e011c	1.1094089
105	0x3fc2dcb9	1.5223609
106	0x3f9cbe13	1.2245506
107	0x3f8e01a4	1.1094251
108	0x3fdb4eb3	1.7133392
109	0x3f976283	1.1826938
110	0x3f671c96	0.90277994
111	0x3fccacaa	1.5990193
112	0x400ada65	2.1695797
113	0x3fa0e2e3	1.256924
114	0x3f6f44b5	0.93464214
115	0x3f889412	1.0670187
116	0x3f3b96be	0.7327689
117	0x3f7e07b5	0.9923051
118	0x3f393bd7	0.72356933
119	0x3fb31186	1.3989723
120	0x3f6df652	0.9295398
121	0x3fa62867	1.298108
122	0x3fd86a43	1.6907429
123	0x3fba3d4a	1.4549954
124	0x3fd926b8	1.6964941
125	0x3fcaf440	1.5855789
126	0x3ef0def7	0.4704511
127	0x3fa51aa8	1.289876
128	0x3eac55f8	0.3365934
129	0x3db15dca	0.08660467
130	0xbebce191	-0.36890844
131	0xbe86ae3a	-0.263048
132	0x3dfe3e66	0.12414245
133	0x3e1df32e	0.15424797
134	0xbe38e18d	-0.18054791
135	0x3ef5796b	0.47944197
136	0xbef8a89f	-0.48566148
137	0xbeb4fb36	-0.3534791
138	0xbf417883	-0.7557451
139	0xbf21cc56	-0.63202417
140	0x3e93730e	0.28798717
141	0xbed66c14	-0.41879332
142	0x3f2203fe	0.6328734
143	0x3f37df78	0.7182536
144	0xbf57e6e1	-0.8433667
145	0x3f880cd8	1.062892
146	0x3ba61221	0.005068079
147	0x3df4fea0	0.11962628
148	0x3d7a144f	0.061054524
149	0xbdb5d680	-0.08878803
150	0xbf07b90b	-0.5301673
151	0xbea41849	-0.32049778
152	0xbd0c7b16	-0.03429707
153	0x3e6c3987	0.2306882
154	0xbeaab8da	-0.33344156
155	0x3f218523	0.63093776
156	0x3f82454d	1.0177399
157	0xbd9ab7ac	-0.07554564
158	0x3ddb2e69	0.107022114
159	0x3f3709ef	0.7149953
160	0x3ed39ca9	0.4133046
161	0xbfec7665	-1.8473631
162	0x3d53b304	0.051684394
163	0xbec3f48b	-0.3827251
164	0x3d9d6289	0.0768481
165	0xbc274eb0	-0.010211632
166	0x3f8f8a41	1.1214067
167	0x3f7ad4bc	0.97980857
168	0xbf1221c7	-0.5708279
169	0x3ec963ed	0.3933405
170	0xbe3f60e8	-0.1868931
171	0x3eba5504	0.36392987
172	0xbf35eb96	-0.710626
173	0x3f4972c5	0.7869075
174	0xbec3b2af	-0.38222262
175	0x3eb50fb1	0.35363534
176	0xbf5240a7	-0.821299
177	0xbe8927fd	-0.2678832
178	0xbe85cecf	-0.26134345
179	0xbeb55785	-0.35418335
180	0x3e99f33c	0.30068386
181	0xbea07c19	-0.3134468
182	0xbee7e468	-0.45291448
183	0xbe67c596	-0.22633967
184	0x3ecbf5cf	0.39835975
185	0x3e0ea620	0.13930559
186	0x3f052749	0.5201307
187	0x3e6d837d	0.2319469
188	0x3f9fdd9f	1.2489508
189	0x3ec05cb1	0.37570718
190	0x3f438692	0.76377213
191	0x3f8c8bcb	1.0980161
192	0xbdbd505b	-0.09243842
193	0x3e9df386	0.30849856
194	0x3f50034e	0.8125504
195	0x3ef7050a	0.48246032
196	0x3dd4765d	0.103741385
197	0x3ebadfd0	0.3649888
198	0xbe4e4413	-0.20143156
199	0x3ea0479b	0.3130463
200	0x3e7f1c8e	0.24913236
201	0x3f0efabf	0.5585136
202	0x3f82852b	1.019689
203	0x3f44f0bb	0.76929826
204	0x3eeab1f2	0.45838886
205	0x3f65dbd1	0.8978854
206	0x3f40897b	0.7520978
207	0xbe1b3a61	-0.15158989
208	0x3f4ee5d3	0.80819434
209	0x3f882f3b	1.0639414
210	0xbdec9856	-0.11552493
211	0x3f376a49	0.71646553
212	0xbd93b010	-0.07211316
213	0x3e339069	0.17535557
214	0x3eb9bc22	0.36276346
215	0x3e11a9f8	0.14224994
216	0xbe420701	-0.18947984
217	0x3d6480e8	0.055786997
218	0x3e7fd782	0.24984553
219	0x3f503fa7	0.81347126
220	0x3f4276c4	0.7596247
221	0x3f624d3e	0.8839911
222	0x3f837d8d	1.027269
223	0x3f34783d	0.7049597
224	0x3f27f91a	0.65614474
225	0x3ee432d1	0.4457002
226	0x3f74b9d3	0.95596045
227	0x3f6d9ae9	0.928145
228	0xbf86f927	-1.0544785
229	0xbe24e463	-0.16102748
230	0x3f770d24	0.96504426
231	0x3f4b6abb	0.7945973
232	0x3f72bfe3	0.94824046
233	0x3e36b112	0.17840984
234	0x3f4a22fe	0.78959644
235	0x3ecf39f3	0.404739
236	0x3e4da341	0.20081808
237	0x3f301a04	0.68789697
238	0xbb56170c	-0.0032667546
239	0xbdaf5cc3	-0.08562615
240	0x3f2128d1	0.62952906
241	0xbf1bb2c4	-0.6081965
242	0x3f10d4ec	0.56574893
243	0x3e21db35	0.15806277
244	0xbd80498a	-0.062640265
245	0x3f629255	0.88504535
246	0x3f668b0e	0.9005593
247	0xbd984fc4	-0.07437089
248	0x3ea6efce	0.3260483
249	0x3eea2d2e	0.45737594
250	0x3d38b96a	0.0450987
251	0xbf2c51d8	-0.67312384
252	0xbe9f0ad4	-0.3106295
253	0x3e8b924d	0.27260056
254	0x3f152c1e	0.5827044
255	0x3ed1decf	0.40990302

while/MatMul f4 [256, 1]
0	0x3eb52fd4	0.35388052
1	0x3e58c346	0.21168241
2	0x400ae423	2.1701744
3	0x400fc01b	2.2461002
4	0x3e95cf5d	0.29259768
5	0x3dc12e6c	0.094326824
6	0x3e5b88e7	0.21438943
7	0x3ea8134a	0.32827216
8	0x3eb256c0	0.3483181
9	0x3ec49e6a	0.3840211
10	0x3ed8e453	0.42361698
11	0x3eb652e0	0.35610104
12	0x3eb8d9f5	0.36103788
13	0x402f65f7	2.7405984
14	0x3ec5c9e3	0.3863059
15	0x3d8198bc	0.0632796
16	0x3f037c99	0.51361996
17	0x3eb9882a	0.36236697
18	0x3d8b1e9e	0.06792949
19	0x3ff1dbf7	1.8895253
20	0xbcf6ca6f	-0.030125825
21	0x400beed6	2.1864524
22	0x3ebe6d17	0.37192604
23	0x3fec9cef	1.8485392
24	0x3e417728	0.18893111
25	0x3d88a2c3	0.06671669
26	0x3ecfd53a	0.40592366
27	0x3d95b086	0.0730906
28	0x3ea29c48	0.31759858
29	0x3fcda57d	1.6066128
30	0x3e792733	0.2433136
31	0x3e9fdb5b	0.31222042
32	0x3da3c76c	0.07997021
33	0x3d8e434f	0.06946432
34	0x3fd3b3ad	1.6539208
35	0x40274d66	2.614099
36	0x3e0262aa	0.1273295
37	0x3d6305f7	0.05542561
38	0x3d9bc9d6	0.076068565
39	0x3ea6a850	0.32550287
40	0x3ff4f0b8	1.9135962
41	0x3e9e1d64	0.30881798
42	0x3fec702c	1.8471732
43	0x3e64e5e7	0.22353326
44	0x3ea5595b	0.32294735
45	0x3e8c6f18	0.27428508
46	0x3ee2a07b	0.44263062
47	0x3e7280c1	0.23681928
48	0x3e06e1ab	0.13172023
49	0x3f14bc90	0.58100224
50	0xbd1d1a99	-0.038355444
51	0x3d9bf5a8	0.076152146
52	0x3dd28c1e	0.102806315
53	0x4015a5e6	2.3382506
54	0x3ec8e7e6	0.39239424
55	0x3e57daea	0.21079603
56	0x3d80a0d0	0.062806726
57	0x3eb72b11	0.35775045
58	0x3ec2cdc6	0.38047618
59	0x3f441633	0.76596373
60	0x3eb8f9da	0.36128122
61	0x402cc771	2.699673
62	0x3db8f732	0.09031524
63	0x40101a55	2.2516072
64	0xbda90027	-0.08251982
65	0x3f3238be	0.6961783
66	0x3f53e6ef	0.8277425
67	0x3f9d8ec9	1.23092
68	0x3e44b584	0.19209868
69	0x3f83c5b2	1.0294707
70	0x3e045a36	0.12925038
71	0x3ea5a413	0.3235174
72	0xbd14ea6c	-0.036356375
73	0x3d2ec1a6	0.042665146
74	0x3d1e93f0	0.038715303
75	0x3c6103cd	0.013733816
76	0x3cb5db08	0.022199169
77	0x3fafeed3	1.3744758
78	0x3d033957	0.032037105
79	0x3f861690	1.0475636
80	0x3ec0a1f6	0.37623566
81	0x3d777a5c	0.060419425
82	0x3fdef078	1.7417135
83	0x3ea9eac5	0.33186927
84	0x3f3327a7	0.6998238
85	0x3fbc41cf	1.4707583
86	0x3d8c76f2	0.068586245
87	0x3f0d7ef4	0.5527184
88	0x3ddbee04	0.10738757
89	0x3e057c1b	0.13035624
90	0x3e946717	0.289849
91	0x3f3fbab7	0.7489428
92	0x3d8b8f8b	0.06814488
93	0x3eb937b9	0.36175326
94	0x3d98bca0	0.07457852
95	0x3d60b8ec	0.054863855
96	0x3fb2b3c7	1.3961114
97	0x3f171a29	0.5902429
98	0x3f309a58	0.6898551
99	0x3f20a72b	0.6275508
100	0x3e5fd742	0.21859458
101	0xbdf1f2b2	-0.118138686
102	0x3dd9dfed	0.106384136
103	0x3ea34623	0.31889448
104	0x3f62f290	0.8865137
105	0x3cf501d4	0.029908098
106	0x3e37f4cb	0.17964475
107	0x3f71a88b	0.943978
108	0x3daf7b62	0.08568455
109	0x3d885ad3	0.06657948
110	0x3d998457	0.07495945
111	0x3e27d707	0.1639062
112	0x3d26c0a4	0.04071106
113	0x3db07415	0.08615891
114	0x3f0e33ba	0.5554768
115	0x3f450082	0.769539
116	0x3f80d77d	1.0065762
117	0x3f9740c7	1.1816643
118	0x3ed830dd	0.4222478
119	0x3e89c0fd	0.2690505
120	0x3fb73e76	1.4315937
121	0x3e2f9196	0.1714538
122	0x3e054bfb	0.13017265
123	0x3dbef758	0.09324521
124	0xbe87a778	-0.26494956
125	0x3b2d5236	0.0026446707
126	0x3faced67	1.350995
127	0x3f940410	1.156374
128	0xbd4c2d21	-0.049847726
129	0x400a98fe	2.165588
130	0x401bf017	2.436529
131	0x401ad386	2.4191604
132	0x3dfed171	0.124422915
133	0x3f5589f4	0.83413625
134	0xbe5ad431	-0.21370007
135	0x3e72ccf8	0.23711002
136	0xbe77bc22	-0.2419286
137	0xbe6e6061	-0.23278953
138	0xbe87576d	-0.26433888
139	0xbe585ddc	-0.21129555
140	0x3e542e93	0.20720892
141	0x401fbdfb	2.4959705
142	0x3e70ae6d	0.23504038
143	0x3ff12fd4	1.8842721
144	0xbe5de332	-0.216687
145	0x3e67c251	0.2263272
146	0xc007e32e	-2.123241
147	0x40013f0a	2.0194726
148	0xbf9e3680	-1.2360382
149	0x4018f572	2.3899808
150	0xbe68f65d	-0.2275023
151	0x4004f0a1	2.0771868
152	0x3d9c3e27	0.07629042
153	0x3e43c2ba	0.19117251
154	0xbe67b460	-0.22627401
155	0xc0045be1	-2.0681078
156	0x3e746875	0.23867972
157	0x3fd3e7c1	1.6555101
158	0xbcd51663	-0.026011651
159	0x3e43c712	0.19118908
160	0xc00bd03a	-2.1845841
161	0xbfded0ec	-1.7407508
162	0xc006c5e2	-2.1058278
163	0x4023c5e3	2.558953
164	0xbcee717e	-0.029106852
165	0x3ea15030	0.3150649
166	0x3e7044c1	0.23463728
167	0x3ea3474c	0.31890333
168	0xbfe33cd2	-1.7752936
169	0x3ee78523	0.45218763
170	0xbfc04c01	-1.5023195
171	0xc02140cd	-2.5195801
172	0xbe5caab8	-0.21549499
173	0x3e5ee9be	0.21768853
174	0xbe8fd50f	-0.28092238
175	0x3e47af47	0.19500457
176	0xbe829130	-0.25501394
177	0xbed8dd0a	-0.4235614
178	0xbe80e8ee	-0.2517771
179	0x40159665	2.3373044
180	0xbf8f9d67	-1.121991
181	0x400e284f	2.2212102
182	0x3d4f7aae	0.050654106
183	0xbd875cd2	-0.06609501
184	0xc02972d9	-2.6476347
185	0x3e779b55	0.24180348
186	0xbd538064	-0.051636115
187	0x3f180ae5	0.59391624
188	0x3e3f979b	0.18710177
189	0xc0138c44	-2.3054361
190	0x3f8dfe3f	1.1093215
191	0x400058ce	2.0054202
192	0x3d8e5272	0.06949319
193	0x3f8e20dc	1.1103778
194	0x3d81592b	0.063158356
195	0x3d98d2f5	0.07462112
196	0x3d9ed795	0.07755963
197	0x3dce9182	0.10086347
198	0x3d8cf60e	0.06882869
199	0x3eb5a9eb	0.354812
200	0x3ec9e23a	0.3943041
201	0x3ed91478	0.4239843
202	0x3ef18788	0.47173715
203	0x3eda2beb	0.42611632
204	0x3ed995f6	0.42497224
205	0xbd0a6c9c	-0.033794984
206	0x3ee2dc9f	0.44308946
207	0x3d689f71	0.05679268
208	0xbcd1e3d5	-0.025621334
209	0x3eda97d5	0.42693964
210	0x3d80405b	0.06262275
211	0x3d93cdd2	0.072169915
212	0x3efd6901	0.49494174
213	0x3d3409d3	0.04395468
214	0x3eca85c0	0.39555168
215	0x3d533d9d	0.05157243
216	0x3de85f49	0.11346299
217	0x3d7a49e1	0.061105613
218	0x3edb4cb3	0.42831954
219	0x400198cb	2.0249507
220	0x3ee8e000	0.45483398
221	0xbcf41ca1	-0.029798808
222	0x3e7c022e	0.24610206
223	0x3ec7a20d	0.38990822
224	0x3ff669b7	1.9251012
225	0x3e09cea9	0.13457741
226	0xbd0bf7be	-0.034171812
227	0xbd177e6a	-0.036985792
228	0x3d84fac0	0.06493139
229	0x3e27afb9	0.16375627
230	0xbd507988	-0.05089715
231	0x3ef12c69	0.47104195
232	0xbca95b53	-0.02067343
233	0x3ee34f05	0.44396225
234	0xbccd831d	-0.025086934
235	0x4028ea04	2.6392832
236	0x3eb4ef32	0.35338742
237	0x3ec19c68	0.3781464
238	0x3f09ab58	0.53777075
239	0x3eab40c8	0.33447862
240	0x3f05b321	0.52226454
241	0x3d7c7c80	0.06164217
242	0x3ee1d677	0.44108936
243	0x3da88499	0.08228416
244	0x3de3833f	0.111090176
245	0xbd0915ca	-0.033468045
246	0x3ee2e614	0.4431616
247	0x3e763d2b	0.24046771
248	0x3ffbe97e	1.9680631
249	0x3f094118	0.5361495
250	0x3d8c3288	0.068455756
251	0x3d6198c2	0.05507732
252	0xbda21fe9	-0.07916243
253	0x3d86666c	0.06562504
254	0x3dcd2b27	0.10017996
255	0xbd34dfd8	-0.044158787

while/MatMul_1 i1 [256, 64] scale=0.055923402 zero_point=0
0	0x16	1.2303149
1	0x11	0.95069784
2	0x0c	0.6710808
3	0x14	1.118468
4	0x16	1.2303149
5	0x18	1.3421617
6	0xeb	-1.1743915
7	0x11	0.95069784
8	0xe9	-1.2862382
9	0xe5	-1.5099318
10	0xe8	-1.3421617
11	0xe3	-1.6217787
12	0x1a	1.4540085
13	0x0c	0.6710808
14	0x1b	1.5099318
15	0x10	0.89477444
16	0xe5	-1.5099318
17	0x1d	1.6217787
18	0xf0	-0.89477444
19	0x03	0.1677702
20	0xeb	-1.1743915
21	0x0e	0.78292763
22	0xe5	-1.5099318
23	0x10	0.89477444
24	0x10	0.89477444
25	0x14	1.118468
26	0xee	-1.0066212
27	0xeb	-1.1743915
28	0x1e	1.6777021
29	0x13	1.0625446
30	0x10	0.89477444
31	0x18	1.3421617
32	0xea	-1.2303149
33	0xf1	-0.83885103
34	0xef	-0.95069784
35	0x0c	0.6710808
36	0x10	0.89477444
37	0xff	-0.055923402
38	0x16	1.2303149
39	0x18	1.3421617
40	0xea	-1.2303149
41	0x1c	1.5658553
42	0xe6	-1.4540085
43	0x06	0.3355404
44	0xeb	-1.1743915
45	0x1e	1.6777021
46	0xe9	-1.2862382
47	0x14	1.118468
48	0xed	-1.0625446
49	0xf5	-0.6151574
50	0xe5	-1.5099318
51	0x0d	0.72700423
52	0xea	-1.2303149
53	0x12	1.0066212
54	0x17	1.2862382
55	0xef	-0.95069784
56	0xf1	-0.83885103
57	0x17	1.2862382
58	0x11	0.95069784
59	0x10	0.89477444
60	0x12	1.0066212
61	0xec	-1.118468
62	0x17	1.2862382
63	0x13	1.0625446
64	0xfe	-0.111846805
65	0xfe	-0.111846805
66	0x04	0.22369361
67	0x07	0.39146382
68	0x03	0.1677702
69	0xfe	-0.111846805
70	0x01	0.055923402
71	0xff	-0.055923402
72	0x01	0.055923402
73	0xfa	-0.3355404
74	0xfb	-0.279617
75	0xf9	-0.39146382
76	0x06	0.3355404
77	0x05	0.279617
78	0x04	0.22369361
79	0x06	0.3355404
80	0xf9	-0.39146382
81	0xfd	-0.1677702
82	0xfd	-0.1677702
83	0x04	0.22369361
84	0xf9	-0.39146382
85	0x03	0.1677702
86	0xfb	-0.279617
87	0x01	0.055923402
88	0x01	0.055923402
89	0x01	0.055923402
90	0x00	0.0
91	0xfc	-0.22369361
92	0x07	0.39146382
93	0x06	0.3355404
94	0xfc	-0.22369361
95	0x00	0.0
96	0xf7	-0.5033106
97	0xfb	-0.279617
98	0xfd	-0.1677702
99	0x04	0.22369361
100	0xfa	-0.3355404
101	0xfb	-0.279617
102	0x04	0.22369361
103	0x05	0.279617
104	0xfa	-0.3355404
105	0x04	0.22369361
106	0xfc	-0.22369361
107	0xf9	-0.39146382
108	0xfc	-0.22369361
109	0x03	0.1677702
110	0xfc	-0.22369361
111	0x01	0.055923402
112	0x00	0.0
113	0xfd	-0.1677702
114	0xfa	-0.3355404
115	0xfd	-0.1677702
116	0xfc	-0.22369361
117	0x03	0.1677702
118	0xfd	-0.1677702
119	0x04	0.22369361
120	0xfd	-0.1677702
121	0x02	0.111846805
122	0xfc	-0.22369361
123	0x06	0.3355404
124	0x08	0.44738722
125	0xfc	-0.22369361
126	0x0a	0.559234
127	0x08	0.44738722
128	0xff	-0.055923402
129	0x05	0.279617
130	0x0a	0.559234
131	0x08	0.44738722
132	0x03	0.1677702
133	0x05	0.279617
134	0xfd	-0.1677702
135	0xfe	-0.111846805
136	0xfe	-0.111846805
137	0xfe	-0.111846805
138	0x00	0.0
139	0xfc	-0.22369361
140	0x03	0.1677702
141	0x07	0.39146382
142	0x01	0.055923402
143	0xfa	-0.3355404
144	0xfe	-0.111846805
145	0x01	0.055923402
146	0xfc	-0.22369361
147	0x03	0.1677702
148	0xfc	-0.22369361
149	0x04	0.22369361
150	0xff	-0.055923402
151	0x04	0.22369361
152	0x04	0.22369361
153	0x03	0.1677702
154	0xfe	-0.111846805
155	0xf8	-0.44738722
156	0x01	0.055923402
157	0x09	0.5033106
158	0x01	0.055923402
159	0x00	0.0
160	0xf9	-0.39146382
161	0xfd	-0.1677702
162	0xf9	-0.39146382
163	0x05	0.279617
164	0xff	-0.055923402
165	0x04	0.22369361
166	0x03	0.1677702
167	0x00	0.0
168	0xfd	-0.1677702
169	0x02	0.111846805
170	0xfc	-0.22369361
171	0xf7	-0.5033106
172	0xfd	-0.1677702
173	0x01	0.055923402
174	0xfb	-0.279617
175	0x01	0.055923402
176	0x00	0.0
177	0xff	-0.055923402
178	0xfc	-0.22369361
179	0x06	0.3355404
180	0xfc	-0.22369361
181	0x09	0.5033106
182	0x03	0.1677702
183	0xfc	-0.22369361
184	0xf8	-0.44738722
185	0x04	0.22369361
186	0x01	0.055923402
187	0x00	0.0
188	0x03	0.1677702
189	0xfb	-0.279617
190	0x03	0.1677702
191	0x02	0.111846805
192	0x00	0.0
193	0x05	0.279617
194	0x01	0.055923402
195	0x0a	0.559234
196	0x04	0.22369361
197	0x08	0.44738722
198	0xfd	-0.1677702
199	0x00	0.0
200	0xff	-0.055923402
201	0xff	-0.055923402
202	0x00	0.0
203	0xfd	-0.1677702
204	0x00	0.0
205	0x0c	0.6710808
206	0x01	0.055923402
207	0x09	0.5033106
208	0xfc	-0.22369361
209	0x02	0.111846805
210	0xf8	-0.44738722
211	0x0a	0.559234
212	0xf7	-0.5033106
213	0x11	0.95069784
214	0xfe	-0.111846805
215	0x09	0.5033106
216	0x05	0.279617
217	0x01	0.055923402
218	0xfa	-0.3355404
219	0x03	0.1677702
220	0x03	0.1677702
221	0x08	0.44738722
222	0x00	0.0
223	0xff	-0.055923402
224	0xfb	-0.279617
225	0xf9	-0.39146382
226	0xfb	-0.279617
227	0x08	0.44738722
228	0x02	0.111846805
229	0xf7	-0.5033106
230	0x04	0.22369361
231	0x00	0.0
232	0xf6	-0.559234
233	0xff	-0.055923402
234	0xfe	-0.111846805
235	0xfb	-0.279617
236	0xff	-0.055923402
237	0xfe	-0.111846805
238	0xfb	-0.279617
239	0x02	0.111846805
240	0xff	-0.055923402
241	0x09	0.5033106
242	0xfb	-0.279617
243	0x07	0.39146382
244	0xf8	-0.44738722
245	0x09	0.5033106
246	0x03	0.1677702
247	0xfd	-0.1677702
248	0xfa	-0.3355404
249	0xff	-0.055923402
250	0x00	0.0
251	0xf8	-0.44738722
252	0x02	0.111846805
253	0xfa	-0.3355404
254	0x12	1.0066212
255	0x0a	0.559234
