backend/fastapi/FastAPI1.0.0/TfliteStorage/M16M.tflite (tflite, 6760 bytes, 9 tensors)

sequential_1/dense_5/BiasAdd/ReadVariableOp f4 [16]
000000 d6 23 69 3f 0b 61 b1 bd 52 24 42 be c2 a9 12 3f
       0.91070306 -0.086610876 -0.18959168 0.5729028
000010 09 c6 3c bd 89 52 f2 be 54 4e d2 bd 2a 4d 1a be
       -0.0460873 -0.47328594 -0.10268846 -0.15068498
000020 a4 f1 2c bd dd 62 0c 3f 19 ce 16 3f d8 3b 8e 3f
       -0.042222634 0.54838353 0.5890823 1.1112013
000030 38 df 68 be a6 df f9 3e d8 64 02 bf 22 32 f3 be
       -0.22741401 0.48803443 -0.50935125 -0.47499186

sequential_1/dense_4/BiasAdd/ReadVariableOp f4 [16]
000000 69 b8 67 3f c2 9a 92 bc 30 0b 00 3f 20 51 13 3f
       0.9051576 -0.01789606 0.5001707 0.5754566
000010 fb f3 0e 3e a6 e6 0b bf b6 53 0e bf cc 9d a6 bb
       0.13960259 -0.54648817 -0.5559648 -0.005084729
000020 66 ee e3 bc 14 83 78 3f e0 34 18 3f 3a 75 11 3f
       -0.027823638 0.9707501 0.5945568 0.568195
000030 0e 96 45 3f fb 43 29 bf 81 dc 38 3f 23 96 35 3e
       0.7718209 -0.66119355 0.7221146 0.17733054

sequential_1/dense_3/BiasAdd/ReadVariableOp f4 [16]
000000 5f 9b 69 bf af 71 47 3f 6f 2e 5e bf 74 15 01 ba
       -0.912527 0.7790784 -0.867896 -0.0004924156
000010 00 ff dc 3f 48 56 49 3f fa 2a 4d 3f 80 0f 92 3f
       1.726532 0.7864728 0.801437 1.141098
000020 c7 78 f7 bf ed bd 6c 3f 61 06 23 3f 6f c5 f4 be
       -1.9333733 0.92477304 0.6368161 -0.4780688
000030 ff b8 41 3f 72 4b aa 3e ba ce 70 3f 53 5f 38 bf
       0.75672907 0.33260685 0.9406544 -0.72020453

sequential_1/dense_2/BiasAdd/ReadVariableOp f4 [16]
000000 ad d3 4b bf 20 6d c4 3e c8 30 8c bf ec 49 7e 3e
       -0.79619867 0.38364506 -1.0952387 0.24832886
000010 92 64 40 3f 58 44 93 3f d4 7b ca be 42 0f a7 3f
       0.7515346 1.1505232 -0.39547598 1.3051531
000020 ee 6a 6b 3e ff b0 5c 3f f0 44 bb bf 7d 07 5f 3e
       0.22990009 0.86207575 -1.4630413 0.217802
000030 59 a1 58 3f 2c 77 8d bd ea b6 18 bd 4c b8 48 3f
       0.84621197 -0.06907496 -0.037283815 0.78406215

sequential_1/dense_2/MatMul f4 [16, 10]
000000 08 68 8f bf 6f 5e 86 3e 1e 2d c0 bb 2a 1d c9 be
       -1.1203623 0.26243922 -0.0058647534 -0.39280063
000010 c8 e4 5b 3e 47 8a 04 3f 78 d6 cb 3d ae da 29 3e
       0.21473992 0.51773494 0.09953016 0.16587326
000020 c7 5a 72 3e 5d 42 71 c0 53 f1 2a bd e2 29 17 3e
       0.23667441 -3.7696755 -0.04173405 0.14762071
000030 c9 9d 50 be a4 86 81 3e 16 75 4d bc 57 97 b8 3a
       -0.2037269 0.25298035 -0.0125401225 0.0014083189
000040 ec ef 0e bd cc a2 ea 3d b1 00 dc bc 34 ec 81 c0
       -0.034896776 0.11456832 -0.026855798 -4.0600834
000050 a3 ef 65 bf 9d ac 09 bf c7 5e 48 bf ee 14 23 bf
       -0.8981878 -0.5377901 -0.7826962 -0.6370381
000060 2a dc 80 be 13 52 3f be a6 b0 cb 3d a5 a5 e5 be
       -0.25167972 -0.18683653 0.099458024 -0.4485294
000070 fe 9f 3d be e5 35 3d c0 7f 11 37 3f 2a 49 35 be
       -0.18518063 -2.9564145 0.7151107 -0.17703691
000080 00 af 6f 3c c8 31 8a 3e 3c 1e 13 be 80 47 b6 be
       0.014629126 0.26991105 -0.14367002 -0.35601425
000090 c2 c3 87 bd 41 a9 e0 bd 9f f8 43 be 5f 30 40 40
       -0.06629135 -0.109697826 -0.1913781 3.0029523
0000a0 f0 11 e1 3e bc 8c 55 3e ef ae 88 bc 90 58 34 3e
       0.43958998 0.20854467 -0.016684977 0.17611909
0000b0 f5 39 33 be c6 5e 92 3e 2b 80 a0 3d 6a a5 46 be
       -0.17502578 0.2858793 0.07836946 -0.19399038
0000c0 26 9c 3f 3e 0f 43 34 40 0a 1e a6 3f d7 14 94 3c
       0.1871191 2.816593 1.2977917 0.018076343
0000d0 67 16 e9 bd a0 f7 e2 3d fc 4f 5e 3c c0 d7 5b 3b
       -0.11381226 0.11082387 0.013568874 0.0033545345
0000e0 82 f0 a7 bc 09 12 88 3c 24 cc 80 bc d6 9b 6a c0
       -0.020500425 0.016610162 -0.015722342 -3.6657615
0000f0 06 7a 51 be 4b 03 bc 3e fc ce 0e 3f c3 97 5b 3e
       -0.20456704 0.36721262 0.55784583 0.21444611
000100 b6 14 8b 3d 97 e3 e0 3e a2 3c c4 3a 66 9e 10 3f
       0.0679106 0.43923637 0.0014971683 0.56491697
000110 d9 30 ec bd cd 6b 55 c0 99 9c 8b 3f 45 9b 3e 3d
       -0.115327545 -3.3347046 1.0907165 0.046534795
000120 fe 6c eb 3c 8f f5 9a 3c 45 93 3e bb 0b ac 1f 3c
       0.028738495 0.01891592 -0.0029079479 0.009745608
000130 cf 5c b1 bb a9 24 5e 3d 26 72 74 3c f6 62 83 c0
       -0.005412675 0.05423418 0.014919793 -4.10583
000140 a7 1d 33 be ff 57 7f 3e a5 20 d6 3e 66 28 6d 3e
       -0.1749178 0.24935912 0.4182178 0.23159942
000150 38 e3 a6 3c 6b 4d 58 3c d1 ce 1a bd 09 2a 8a 3e
       0.020372018 0.013202052 -0.03779489 0.26985195
000160 fb e5 e4 3d d9 83 27 40 4c 56 8b 3f fa d4 87 3e
       0.11176678 2.6174223 1.0885711 0.26529676
000170 2d 32 b2 be 24 31 ad 3d a3 9d 0c be f7 23 84 3e
       -0.34803906 0.084566385 -0.13732009 0.2580869
000180 dd f6 cf bb 41 d4 c6 3e 5d 14 e0 bc d0 6b 53 40
       -0.006346567 0.38833812 -0.02735346 3.3034554
000190 41 e1 8f bf bf c2 e7 bd 7d ff 9e 3d e1 aa 9c bd
       -1.1240617 -0.11316442 0.07763574 -0.0764978
0001a0 a1 41 a3 3d b3 a8 73 3c 31 af cd 3c 13 b0 2a be
       0.07971502 0.014871764 0.025107952 -0.1666873
0001b0 82 13 cc bd 40 96 4c bf b4 70 8e 3c 2b 3a ad 3e
       -0.09964658 -0.79916763 0.017387725 0.3383344
0001c0 80 38 2f 3d cf 40 07 3f 2b 1a 41 3e 54 e5 13 bc
       0.042778492 0.52833265 0.18857639 -0.009026844
0001d0 25 eb f7 bc 0a f6 a3 3e 44 93 1d 3e fd 2b 37 40
       -0.030263493 0.3202365 0.15388209 2.8620598
0001e0 ae 67 94 3f 2d 92 ec bd 9b 5f d3 3e d3 d5 55 be
       1.159414 -0.11551318 0.4128388 -0.20882349
0001f0 54 c3 88 3e 7a 94 ff 3d 5d 8d 55 bc c3 98 5c be
       0.26711524 0.124794915 -0.013034192 -0.21542649
000200 ce ce 85 3d 76 8d 74 40 f4 b0 0d bb 39 b4 62 be
       0.065335855 3.821134 -0.0021620365 -0.22139062
000210 3e 63 57 be 35 5d 57 3f 3a 81 01 bf bc 9e 6c be
       -0.21033952 0.841266 -0.5058781 -0.23107427
000220 2d dd 3d 3c 1e 79 ce 3d 99 68 8d be b7 15 50 c0
       0.011588377 0.10081695 -0.27618864 -3.2513254
000230 52 b6 e5 be 25 3c 6f 3e a4 5d 30 be 53 a0 97 3e
       -0.44865662 0.23362787 -0.17223221 0.29614505
000240 82 70 a8 be 8e 1e b0 be 00 19 d1 be 79 14 a1 bc
       -0.32898337 -0.3439831 -0.40839386 -0.019663082
000250 39 c0 02 3e b1 d9 fb 3c 9b 56 88 3f 35 fd 95 3d
       0.1276864 0.030743452 1.065143 0.07323686
000260 a7 ce b7 3d cc 54 8d be 14 55 95 3d fa b0 b1 bc
       0.08974963 -0.27603757 0.07291618 -0.021690834
000270 c9 8e 3c 3d fb 92 3c 3e da 52 de 3d 44 a7 78 40
       0.046034608 0.18415444 0.108556464 3.885209

sequential_1/dense_3/MatMul f4 [16, 16]
000000 94 9f 48 be f0 eb b0 3b 36 53 95 3e 2a ac 14 bf
       -0.19592124 0.0053992197 0.29165047 -0.580752
000010 f3 77 6b 3e b6 df 0a be d8 d5 f9 3d 70 a9 49 3f
       0.22994976 -0.13561901 0.121989906 0.78774166
000020 9a 6a 8b 3c bd 64 33 be 28 dc d2 3d af 9b f4 3d
       0.017018605 -0.17518897 0.10295898 0.11943757
000030 3b 71 72 be 3e a0 92 be d4 48 87 be 54 64 7b be
       -0.23676006 -0.2863788 -0.2642275 -0.24549991
000040 de 36 fb be 14 38 a8 be 79 4a 3a 3e 70 74 73 3f
       -0.49065298 -0.32855284 0.18192472 0.95099545
000050 30 0d 3d 3e 62 89 e2 bd ea 46 24 3d 9e 35 06 bf
       0.18462062 -0.1106136 0.04010669 -0.52425563
000060 b2 f7 7e be a5 ed 25 3f 15 7e ab be a1 7d 8d 3e
       -0.24899176 0.6481574 -0.3349463 0.2763491
000070 49 69 0d 3f 34 2b e3 bd fe 55 0f be 62 0a 22 3f
       0.5523878 -0.11092225 -0.13997647 0.6329709
000080 25 2d e0 3e 42 12 02 3d 7d 33 94 3e af 6a 1d bf
       0.43784443 0.031755693 0.28945532 -0.6149091
000090 f8 36 3a bd 23 da 26 3f 97 a6 79 be e4 45 13 40
       -0.04546258 0.651766 -0.24379955 2.3011408
0000a0 e2 c4 c8 3e 83 6a 31 bf ca 31 2a 3e 31 be b9 3e
       0.3921271 -0.6930315 0.16620556 0.36277917
0000b0 c6 ab 3a bf cf f9 18 bd 33 dd d6 3c 23 98 51 3e
       -0.72918355 -0.03734761 0.026228523 0.20468192
0000c0 f6 91 b3 3e 2e 5c 84 3e fe d4 62 3d ed 06 7d 3f
       0.35072297 0.25851578 0.055378906 0.9883869
0000d0 27 31 90 be 36 99 3e 3d f6 73 75 be a7 ae 69 bf
       -0.281625 0.046532832 -0.23970017 -0.91282123
0000e0 8f 2f 03 bf 8f a9 ab 3e 49 cd b2 3e 07 1e 9b 3e
       -0.51244444 0.335278 0.34922245 0.30296347
0000f0 23 1e 16 3f cf 2c 54 be 7e 61 51 be 97 4e 3c be
       0.58639735 -0.20720218 -0.20447347 -0.18389355
000100 4c 23 0f 3d 7a aa 18 3f 89 e2 49 3e 60 17 90 3f
       0.03494577 0.59635127 0.19715323 1.1257133
000110 c5 40 5a be a2 16 f0 be 7e 24 03 3e 5c 5b cb be
       -0.2131377 -0.46892267 0.1280689 -0.3971814
000120 51 62 80 3e e2 08 06 3f 0f 52 2a 3e bb e3 a8 be
       0.2507501 0.52357304 0.16632865 -0.32986245
000130 ae 77 fb 3d 48 05 44 be 2f fd 91 be 92 76 85 3e
       0.122786865 -0.1914264 -0.28513476 0.26067024
000140 99 74 c2 bd 92 4a 7c bf 06 86 a2 be 0f bc 2a 3f
       -0.094948955 -0.98551285 -0.31742877 0.66693205
000150 df 3a e9 3d 80 4e c3 3e 61 41 98 bc ab 1a 06 bf
       0.11388182 0.38145828 -0.018585863 -0.5238444
000160 81 60 a0 bd 50 b9 09 3f 3c df 7e bd 21 a9 db 3e
       -0.07830907 0.5379839 -0.06222461 0.42902473
000170 34 f8 ba 3e 15 db b6 3e 75 df 4b be 1c 24 00 3f
       0.3651749 0.3571402 -0.19909461 0.500551
000180 a5 5f a2 be 28 d0 ea bc 16 58 98 bd bd fc 0f 3f
       -0.31713596 -0.02866371 -0.07438676 0.56245023
000190 b1 d7 49 3e 01 cd 2e be 5d e4 b9 bd 97 61 56 bf
       0.19711186 -0.1707039 -0.0907676 -0.8374266
0001a0 d7 af e6 3e 51 71 58 3f cc 81 47 3e d8 1f 1f be
       0.4505603 0.8454791 0.19483107 -0.15539491
0001b0 4d 68 00 3f 50 d5 2d be 01 7d 9e 3e 63 05 06 3e
       0.5015915 -0.16975904 0.30954745 0.13087992
0001c0 71 11 01 3d 99 69 d6 be 36 8f 01 3e d1 38 90 3e
       0.031510774 -0.4187744 0.12652287 0.28168347
0001d0 1e ef e9 bd db 06 ad 3f 78 a3 45 3e 95 a5 22 40
       -0.11422561 1.3517717 0.1930064 2.5413563
0001e0 11 0d 40 bf 7a bf 6d be 99 5b fd be fe 23 35 be
       -0.7501994 -0.23217574 -0.49483946 -0.17689511
0001f0 bc b1 1e 3e 25 8d ac 3d 9c 01 88 be be 61 77 be
       0.15497488 0.08425359 -0.26563728 -0.2415838
000200 74 33 d7 3e d5 a3 22 3e c7 5a c0 bd 0d 3a f5 3d
       0.42031443 0.1588281 -0.093923144 0.11973963
000210 a1 25 70 be 92 7b 52 3f 73 c3 bf 3e f0 2a 9d 3f
       -0.23451854 0.82219803 0.37453803 1.2278728
000220 6d 05 7c 3e 9a ab 1f bf ae 1b 4d bd 4d bf b8 3e
       0.24611445 -0.6237122 -0.050075226 0.3608345
000230 8f 73 1b bf f7 2d 02 bf 74 15 b8 3e 5a f4 98 3d
       -0.60723203 -0.50851387 0.35953867 0.07468481
000240 86 1e 18 3e 3a 19 90 bf 80 b5 94 be e0 32 5f 3f
       0.14855394 -1.1257699 -0.29044724 0.87187004
000250 0b 23 b4 be dd cc 62 3f 29 c6 4e be be 40 8c 3e
       -0.35182986 0.88593847 -0.2019278 0.27393144
000260 76 5e f8 bc 27 66 a4 3e 2d c1 8a bf c5 fd db 3d
       -0.03031848 0.32109186 -1.0840203 0.10741762
000270 c2 f6 84 3e f2 16 a8 3d cb 7b 6b be fc db 85 3e
       0.2596951 0.082075015 -0.22996442 0.26144397
000280 cc 70 a2 3d 55 e3 b3 be 8c d5 05 be 99 d4 0d 3f
       0.079316705 -0.35134378 -0.13069743 0.55402523
000290 a7 84 0f 3d 1a 08 62 3e b9 1a 9a be 2e 38 13 be
       0.035038617 0.22073403 -0.30098513 -0.143769
0002a0 0a 40 ac 3e 9d aa 0d 3e fd a4 02 bf 83 dd c3 3d
       0.33642608 0.13834615 -0.51033 0.095637344
0002b0 fe 8e 0d 3f 4c a3 98 be d0 d6 da 3e 52 eb f2 3e
       0.55296314 -0.29812086 0.42742014 0.4744516
0002c0 6c a1 e0 3e 2d 1e aa be 91 e8 c7 bc e5 d4 af 3d
       0.43873155 -0.33226147 -0.024402888 0.08585528
0002d0 18 23 77 3e 75 6d 07 3f 50 a1 b2 3e e2 29 93 3f
       0.24134481 0.52901393 0.34888697 1.1497157
0002e0 57 7f b8 3b b1 1c 42 be e0 b4 d2 bd d6 b3 a5 3e
       0.0056304145 -0.18956257 -0.102884054 0.32363766
0002f0 85 7a 9e be 8f cc 2a 3d 17 72 c6 be 8b 6a c8 be
       -0.3095285 0.04169899 -0.3875892 -0.39143786
000300 c4 5a 02 bf 8a e5 84 be 83 a1 d2 3d 96 4e f9 3e
       -0.5091975 -0.25956374 0.10284712 0.4869277
000310 aa b3 8b 3e bb a3 07 3e 0b ba ec bb 3e f0 06 3e
       0.2728551 0.13246052 -0.0072243265 0.13177583
000320 ae 4f c5 3e ed 1a d9 3e d6 db 8d 3e 6a 2f a5 3e
       0.38537353 0.42403355 0.27706784 0.32262737
000330 ce b5 83 3c b9 65 bc be 9e 29 93 3d 92 a6 8b 3e
       0.016077902 -0.36796358 0.07185672 0.2727552
000340 d6 9f 02 bf f8 23 e8 3e 7e be 09 3e e7 ef 3e 3f
       -0.5102514 0.45339942 0.13451573 0.7458481
000350 f1 48 6f 3e 22 23 f4 3e d7 4e c3 3d 2f 2d 05 bf
       0.23367669 0.47683054 0.09536522 -0.5202207
000360 c7 11 9d 3e a6 1f 0a 3f 6f 8a f2 3b ad 7e 91 3e
       0.30677626 0.5395454 0.0074017565 0.28416958
000370 12 69 05 be 4d 9b 2e be d3 67 d7 3d b5 b0 9b 3e
       -0.13028362 -0.1705143 0.1051785 0.30408254
000380 b0 9d ae be 23 ff 19 bf 6f 86 29 be af d6 14 3f
       -0.3410468 -0.6015493 -0.16555189 0.5814008
000390 5a ff 59 3e d9 7b 8d 39 d9 67 b7 be fa fc 1d bf
       0.21288815 0.0002698589 -0.35821417 -0.61714137
0003a0 39 70 03 3e f9 13 28 3f 26 cb 22 be c9 db 09 be
       0.12835778 0.65655476 -0.15897807 -0.13462748
0003b0 10 17 58 3f bd 60 ae 3d 93 02 8d be cb e4 9b 3e
       0.8441019 0.08514545 -0.27541026 0.30447993
0003c0 79 6c eb 3e fd 51 87 3f d8 11 af 3e 76 a4 de 3d
       0.45981196 1.0571896 0.341933 0.10871212
0003d0 3b 82 9d 3e f3 28 25 3e b0 3e 9b 3e b3 0e 5a 3f
       0.3076342 0.16128902 0.30321264 0.8517868
0003e0 0f dd b3 3e 58 d3 04 bf b6 8b de 3c e0 e0 40 3f
       0.35129592 -0.51884985 0.027166229 0.7534313
0003f0 f8 ee 35 bf 6b cf 95 be 0b 8a 67 3e f8 82 f3 bd
       -0.7106776 -0.2925981 0.22611253 -0.11890215

sequential_1/dense_4/MatMul f4 [16, 16]
000000 a8 5e c3 3c 2f 15 72 3f 57 e9 f6 bd 93 48 92 be
       0.023848847 0.94563574 -0.12056225 -0.28570995
000010 26 9f a2 3e 58 ab c7 3d 07 58 04 be 24 63 47 3f
       0.31762046 0.09749478 -0.12924205 0.7788565
000020 e9 e1 5b be ca 02 26 bd 97 39 7a 3e 36 44 0f 3e
       -0.21472897 -0.040530004 0.24436031 0.13990864
000030 7c 9e a3 3e 0a 8e 55 3d 85 e0 8b 3f 97 14 d6 be
       0.3195685 0.052137412 1.0927893 -0.41812584
000040 32 58 00 be 12 b0 49 3f f8 e4 39 bf 71 a5 59 3e
       -0.12533644 0.78784287 -0.72615004 0.21254517
000050 18 33 05 3d 30 52 be bd f6 c8 04 3f 48 de 0e c0
       0.03251943 -0.0929302 0.5186914 -2.232317
000060 69 7f 24 be d8 fb 6a 3f dc 6c e4 bd 64 ab b3 be
       -0.16064228 0.91790533 -0.11153576 -0.35091698
000070 2d 79 00 3e 34 be 8e 3d ce 3f d2 3f 01 25 c5 bd
       0.12546225 0.06969872 1.6425722 -0.096261986
000080 d2 f0 90 3e e1 90 4c 3e 36 20 39 3d 1d c1 b6 bd
       0.2830873 0.19977142 0.045196734 -0.08923552
000090 92 48 93 3e 62 ad 47 be b3 40 15 3e ec 77 af bc
       0.28766304 -0.19499734 0.14575462 -0.021419488
0000a0 65 4c ca 3c 86 d1 cc 3d 47 e8 ad be 8e df eb b9
       0.02469463 0.10000901 -0.33966276 -0.00044989254
0000b0 4a 4e 1c be 5c 56 f7 bd ea 0e 45 3f f9 c4 83 3d
       -0.1526424 -0.120770186 0.7697588 0.06434054
0000c0 42 55 4a 3e 1e 3f 59 3e 21 5d b4 3c d4 8e 31 3e
       0.19759086 0.21215484 0.022017064 0.17339641
0000d0 29 42 96 bc 03 83 c7 3e 17 d6 b4 3e 96 8d c5 3d
       -0.018342094 0.38967142 0.35319588 0.09646146
0000e0 f5 a9 6a 3e b7 2d 48 3e 44 5b 16 3e 4d d7 0c 3e
       0.22916396 0.19548689 0.14683253 0.13754006
0000f0 15 1e b1 3e 99 34 62 3e a0 c6 8a 3f 97 e4 83 be
       0.34593263 0.22090377 1.0841866 -0.25760338
000100 d2 7a a3 be 95 b3 d8 be 1d 38 a0 3e c8 cb f0 be
       -0.31929642 -0.4232451 0.3129281 -0.47030473
000110 3d 9e 8e be 93 e2 1f 3e 40 c1 c7 be ea 8a 24 40
       -0.278551 0.15613775 -0.39014626 2.5709786
000120 b1 82 a0 be 7e 27 20 3e 44 53 23 3e 12 cc fa 3e
       -0.3134971 0.15640065 0.15949732 0.48983818
000130 3b c7 a5 bb 1c 67 52 be bb bd 01 bf 6d e6 04 3e
       -0.0050591505 -0.20547146 -0.5068013 0.12978525
000140 d3 e5 c3 bb 62 b0 d6 be 03 94 d1 3d cb bc 56 be
       -0.005978325 -0.41931444 0.10233309 -0.20970456
000150 0c 66 64 3e cb 2d 5e 3e 04 03 d0 be ef 80 65 3f
       0.22304553 0.21697156 -0.406273 0.8964986
000160 ae 1f ee bd cd 65 01 3e 12 f6 1f bc bc c5 7f 3e
       -0.11627136 0.1263649 -0.009763258 0.24977773
000170 f9 bf 7c 3d c7 3e cf be 91 8c b7 bf 81 69 e8 3e
       0.061706517 -0.40477583 -1.4339772 0.45392993
000180 57 ac ac 3e 77 9b cc 3d d0 d6 9e 3e 75 53 56 3e
       0.33725235 0.0999059 0.31023264 0.20930274
000190 5c f9 6b be 1f 23 21 be 54 8f c4 be dd 92 d4 3f
       -0.23044342 -0.15736054 -0.383906 1.6607319
0001a0 7e bd 06 3f 48 04 b6 bd a7 a9 14 3f b6 79 f6 3c
       0.5263289 -0.08887535 0.5807137 0.030087333
0001b0 8b 4c b9 3d 75 85 cf 3d 6c a3 87 bf e1 5b 8d be
       0.090478025 0.10132877 -1.0596747 -0.2760916
0001c0 01 45 b1 3e 8a d0 d0 be c6 af d9 be e2 72 18 3c
       0.34622958 -0.40784103 -0.42516917 0.009304734
0001d0 35 0a 9c be a0 cb e5 3d 38 ea 46 be 42 d2 25 3e
       -0.30476537 0.11220479 -0.19425285 0.16193488
0001e0 72 ca 14 3e 74 e4 bc 3e ed 5b 6f be 06 e6 b8 be
       0.14530352 0.36893046 -0.2337491 -0.36112994
0001f0 a6 32 30 be 40 ac 7a be 0d 1d 3e 3d f6 96 21 be
       -0.17206821 -0.2447977 0.046414424 -0.15780243
000200 f4 94 67 bd 87 f0 9d bd fe 8f 7d be 9f 95 5c be
       -0.056538537 -0.077118926 -0.2476196 -0.21541451
000210 74 67 5d be 88 de 38 be 2d de 91 bd 18 23 4b be
       -0.21621495 -0.18053639 -0.07122455 -0.19837606
000220 95 9b 6c 3e ea b3 44 3e 11 f0 a3 3e 77 43 68 be
       0.23106225 0.19209257 0.32019094 -0.22681986
000230 81 1f c0 be 05 5b a2 3e 4f d4 0b 3e 73 90 99 be
       -0.37524036 0.31710067 0.13655208 -0.29993019
000240 86 f9 2c be c0 46 81 3f 78 c4 32 be 3f d9 26 bb
       -0.1689206 1.0099716 -0.1745776 -0.0025459079
000250 f5 ff a4 3e b8 cf 84 3e be 48 14 3f ab 06 5d bf
       0.3222653 0.25939727 0.57923496 -0.863383
000260 36 9f e2 bd ed 02 89 be 9f e9 8e 3e 1e ba b8 be
       -0.11065523 -0.26760045 0.27912614 -0.36079496
000270 f1 b1 0e 3e d5 76 87 bd 0c 8a 65 3f f8 3d d7 be
       0.13935067 -0.06614462 0.8966377 -0.42039466
000280 69 09 9c bc 83 50 4d 3f b9 d1 48 3e 48 d1 03 be
       -0.019047456 0.80200976 0.19611253 -0.12872803
000290 f8 8b 76 be c4 58 c1 3e 91 d3 8e 3e b9 d0 35 bc
       -0.24076831 0.37763035 0.27895787 -0.011097127
0002a0 bd 0b 78 3e cd a7 3a 3d ab 6c 81 be fa 1d 66 bd
       0.24223228 0.045570184 -0.2527822 -0.05618093
0002b0 0f e0 bd 3e db ee bc 3d dd a2 8b 3f 72 70 89 bd
       0.37085006 0.092252456 1.0909077 -0.067109
0002c0 50 25 d1 3e d5 71 97 3e 1f 7d a2 3e 08 21 b5 3e
       0.4084878 0.29579034 0.31736085 0.35376763
0002d0 02 c7 ad 3c 90 23 6e 3e 8a 1f 4a 3d 4e 94 0b 3e
       0.021213058 0.23255754 0.049346484 0.13630792
0002e0 77 0c e3 3e a8 59 da bd 63 40 64 3e 8e 80 cd be
       0.44345447 -0.10661632 0.22290187 -0.40137142
0002f0 52 87 b8 be 40 26 fe bd 6c 47 ad 3f 0c e6 cd be
       -0.3604074 -0.12409639 1.3537421 -0.40214574
000300 00 b8 43 be 63 fc 0a 3f 98 72 a6 be 3c a8 a8 bd
       -0.19113159 0.5429136 -0.32509303 -0.08235213
000310 a2 ba 62 be b7 85 75 3d 80 00 1b 3f 11 5d 56 bf
       -0.22141507 0.059941974 0.6054764 -0.8373576
000320 e6 d6 90 be 0d d4 ba bc a2 2d d5 be 4f e3 fc 3d
       -0.28288954 -0.022806192 -0.41636378 0.12348043
000330 87 c5 62 3e 44 86 70 3b f3 66 81 3f 86 26 3c 3e
       0.22145663 0.0036701122 1.0109543 0.1837407
000340 d5 55 d4 be 6d 78 d8 be 89 fb eb 3d 11 2d d4 3e
       -0.41471735 -0.42279378 0.11522586 0.41440633
000350 3e 70 dd 3e e1 58 50 bd bd 84 5b bf ee d4 10 40
       0.43249696 -0.05086601 -0.8574942 2.2629962
000360 79 13 c9 3e 2e 35 d8 be cf 62 e9 3e 91 a8 88 3e
       0.3927267 -0.42228073 0.45583197 0.26691106
000370 c8 b6 7c be 5c bb 29 be d5 1d 8c bf a2 7b 18 be
       -0.246791 -0.16575378 -1.0946604 -0.14890912
000380 e6 03 93 3e 69 c8 0d 3f 84 be dc bc f4 62 8a be
       0.28713912 0.55383927 -0.026946314 -0.2702862
000390 09 ca 00 bf 19 7d d3 3e 86 51 89 3e 0a 7a 80 bf
       -0.5030828 0.4130638 0.2682001 -1.0037243
0003a0 4c 2c a7 3d f4 93 87 3d da fa 77 3e ca 47 89 3d
       0.08162746 0.06620017 0.24216786 0.06703146
0003b0 b9 cb b8 bd 40 81 58 3d be c0 4f 3f 7a 10 2a be
       -0.09023232 0.052857637 0.81153476 -0.16607848
0003c0 e9 87 e7 3e 73 db af be c3 8e a6 bd 76 e2 08 bf
       0.4522088 -0.34347114 -0.081326984 -0.5347055
0003d0 6b cf 8e bb fe d9 bd 3e 14 52 77 be 84 43 14 3d
       -0.0043582222 0.37080377 -0.24152404 0.0361972
0003e0 1f 0b b4 3d 75 33 47 3f 6c b5 44 3d 40 26 c4 3e
       0.08791184 0.7781289 0.04802458 0.38310432
0003f0 da 09 68 be f1 78 81 3d 03 41 d3 be 2f a7 90 bd
       -0.22660008 0.06321896 -0.41260538 -0.07063138

sequential_1/dense_5/MatMul f4 [16, 16]
000000 2a ad be 3e ca ff 2a b9 4e ec da 3d f9 f7 01 3e
       0.3724149 -0.00016307752 0.10689603 0.1269225
000010 c0 b3 0d be a9 54 0a bf 25 fb 82 be 6a 30 af be
       -0.138381 -0.5403543 -0.25582233 -0.34216624
000020 6e b7 bb be 7c b2 61 3f 36 bb a7 3e 65 1e 49 3e
       -0.36663383 0.8816297 0.32760018 0.19640501
000030 e2 2c 0e 3f 42 be fb be e4 2a 04 3f e9 57 c7 3d
       0.55537236 -0.49168593 0.51627946 0.097335644
000040 d0 1c ba bd 90 62 c0 3d 3b ca 0d be 57 83 1c bf
       -0.09087527 0.09393799 -0.13846676 -0.6113791
000050 af ec 1c 3f 72 e4 8d bd 6f 72 cd 3d 9b 94 c4 3e
       0.6129865 -0.06928338 0.10031592 0.38394627
000060 08 e1 13 be 8b 06 d3 bb 40 dd b0 be ca 07 ab be
       -0.14441311 -0.006439989 -0.345438 -0.3340438
000070 6c 64 53 3e 10 8c e0 3d 50 47 18 bf 28 05 ec 3e
       0.20643777 0.10964215 -0.59483814 0.46097684
000080 6e 91 4b 3e e2 d1 be be 7d 70 cb bd a6 5f f0 3d
       0.19879696 -0.37269503 -0.09933565 0.117369935
000090 f9 4d ef 3e 9f 48 31 3e 4b 99 9b 3e b6 86 8a be
       0.46739176 0.17312859 0.3039039 -0.270559
0000a0 96 25 cd bd 98 c6 85 c0 76 fa 91 3d f6 6f 33 3c
       -0.100169346 -4.1804924 0.0712785 0.010951987
0000b0 67 89 a8 be d6 60 bb 3e 53 39 a6 be 9b 15 0d be
       -0.3291733 0.36597317 -0.3246561 -0.13777773
0000c0 2f fe 2c 3e 7c b3 fe be f2 c7 b0 3e 09 65 32 3d
       0.16893838 -0.4974631 0.34527546 0.043553386
0000d0 9a 79 48 3e 3b 6e db bb e6 e5 ab 3e 2f df fa 3d
       0.19577637 -0.00669649 0.33573836 0.122496
0000e0 4d 6c 69 3e e9 39 1b 3f a8 9d d4 3e da 94 1e 3e
       0.2279522 0.6063524 0.41526532 0.1548647
0000f0 cc 60 80 3c 13 7b 26 3f f4 f2 c9 bd 3f 9e 1d 3b
       0.015671156 0.65031546 -0.09860793 0.002405062
000100 78 2a e0 be ee 4c 59 3e 16 03 54 be 6b 28 e3 3d
       -0.437824 0.21220753 -0.20704302 0.110916935
000110 73 01 af be a9 59 a5 be b0 0f cf 3d a3 46 d6 3e
       -0.34180793 -0.32294968 0.10110414 0.41850767
000120 b6 53 78 3e 00 ba 5a 3d ac 77 a5 be f9 27 32 be
       0.24250683 0.05340004 -0.32317865 -0.17398061
000130 67 26 69 be 7a 68 8d 3c e7 0a a6 3e 9a 12 b5 be
       -0.22768556 0.017261732 0.32430193 -0.35365754
000140 62 60 8a 3e f0 09 19 3f ab 5b 66 3d c5 df 95 bd
       0.2702666 0.5978079 0.056239765 -0.07318071
000150 28 95 34 be 3e fd 85 3e 07 fd bb 3e 82 94 00 3e
       -0.17635024 0.2616977 0.36716482 0.12556651
000160 ec 74 ed 3d be 67 13 bf 03 8c 13 be 29 82 ea bc
       0.11594567 -0.57580173 -0.14408879 -0.028626518
000170 86 d5 c4 3e 24 6f 8a be 42 36 f0 3e 85 d4 26 3e
       0.38444155 -0.2703792 0.46916395 0.16292007
000180 fb 1c b8 3d b3 0d 63 bf 88 03 97 3d 31 2b 0b be
       0.089899026 -0.8869278 0.073737204 -0.13590695
000190 84 c3 3b 3e 76 38 07 bf 0e d9 a4 be 6f ba 37 be
       0.18336302 -0.5282053 -0.3219685 -0.17942213
0001a0 96 3a 75 bd 46 d9 c7 3e 6e cd 07 bf 2c b8 17 be
       -0.059870325 0.39032954 -0.53047836 -0.1481635
0001b0 74 af 71 be e1 fd 85 bd 58 e7 d0 3e b0 d1 dd 3c
       -0.23602086 -0.06542564 0.408015 0.027077526
0001c0 e4 8f 5c be 0f 97 16 be da d9 0a bf e6 be d9 bd
       -0.21539265 -0.14706062 -0.54238665 -0.10632114
0001d0 8b fe 3c 3e 49 89 49 3e a9 31 c8 be d1 31 a7 be
       0.18456475 0.19681276 -0.39100388 -0.32655194
0001e0 2e 45 2f be 34 00 d0 be 63 bc af be 82 08 9e 3e
       -0.17116234 -0.40625155 -0.34323415 0.30865866
0001f0 0f e1 99 3e a2 99 74 bd a8 e1 05 bf cf 09 a0 be
       0.3005452 -0.05971683 -0.5229745 -0.31257483
000200 dd 83 83 bd c5 9f 8f 3d 65 05 58 3e 21 5e 86 3d
       -0.06421635 0.070128955 0.21095808 0.065609224
000210 af 43 2a be 4b 33 5b be e8 38 69 be 2b 17 6b 3d
       -0.16627382 -0.21406285 -0.22775614 0.05739514
000220 08 3f a0 bd 4b 15 80 be ba d0 64 bd df 4f 26 3d
       -0.07824522 -0.25016245 -0.05586312 0.040603515
000230 85 81 16 be d3 73 8b be 45 e3 09 3e f5 83 70 be
       -0.14697845 -0.27236804 0.13465603 -0.23487838
000240 39 45 b5 3e 49 42 bc 3c e2 d7 d3 bb d0 7b 61 bd
       0.35404375 0.022980826 -0.006464944 -0.055049717
000250 2b a8 62 be ea e1 ac 3e 7e fe e0 3c 90 d6 81 3d
       -0.22134463 0.3376611 0.027465101 0.06339753
000260 8d 8d 13 3d 6a f7 0a 3f b5 22 d8 3e 24 11 e9 bd
       0.036023665 0.54283774 0.4221398 -0.113802224
000270 1f e5 ed be 42 a1 df bd 13 bb c0 bd 85 2e d5 be
       -0.46463868 -0.10919429 -0.094106816 -0.41637054
000280 84 11 d5 3e 90 5d ef 3c 72 54 24 3e b0 3e cf 3e
       0.41614926 0.029219419 0.16047838 0.40477514
000290 3c aa 76 bd f2 b0 80 3e 13 a9 07 3f 71 63 8d 3e
       -0.060220942 0.25135 0.5299236 0.2761493
0002a0 10 b3 cc be 36 b5 25 3f 85 d4 ea 3e e4 9f e3 3d
       -0.39980364 0.6472963 0.45865265 0.11114481
0002b0 09 d3 d8 be 24 fe 45 3e 8c 44 56 3e d6 3e 1a be
       -0.42348507 0.19335228 0.20924586 -0.15063033
0002c0 5c ba 63 3e 62 78 aa bd 58 7c d4 bd 72 df d3 bd
       0.22239059 -0.083237424 -0.10375279 -0.10345353
0002d0 46 04 83 3e 9e 0d 23 3e 9f 65 73 3e 66 da cc be
       0.25589198 0.15923163 0.23769234 -0.40010375
0002e0 df 5b 9a 3d 81 8a c5 be f4 da 2e 3d e3 43 d2 be
       0.07537054 -0.38582233 0.04268928 -0.41067418
0002f0 07 08 df 3e 97 36 94 3e 9f 23 cc 3e 0e 3d 45 3e
       0.43560812 0.289479 0.39870927 0.19261572
000300 82 6b c7 bd 5a 84 66 3c 93 fe eb 3e a8 b7 8d be
       -0.09737302 0.014069641 0.46092662 -0.2767918
000310 c9 c6 46 bf 6c ee f7 3d 60 98 63 bd 6c 7b 45 be
       -0.7764707 0.12106022 -0.055565238 -0.19285363
000320 ef bf ae 3e 29 f3 73 bf e7 46 8d 3e 24 b2 3a bf
       0.3413081 -0.9529291 0.27593157 -0.7292807
000330 38 d8 15 be 57 5e 6d bd 67 1f 2f 3e c7 be a8 be
       -0.14633262 -0.057951298 0.17101823 -0.32958052
000340 ee 8f 42 bd d6 90 86 be 1c 41 7d bd 24 2d 89 3e
       -0.047500543 -0.26282376 -0.06182967 0.26792252
000350 57 b1 15 be 18 75 b3 bd f6 c5 d6 3e b0 f6 2b be
       -0.14618431 -0.08762568 0.41947907 -0.16793323
000360 bb 69 e8 bd c0 cf 2d 3e a3 82 bd 3e 45 0b 6e be
       -0.113482915 0.16973782 0.3701373 -0.23246486
000370 49 14 c3 bd 18 65 aa bd 7e 3d 0f bf 24 6b b7 be
       -0.095253535 -0.08320063 -0.55953205 -0.3582393
000380 f3 87 38 3e 72 9f e8 3d fd 51 2f 3e c7 0e bb 3c
       0.1802061 0.11358537 0.1712112 0.022834195
000390 ff 22 97 bd e2 8d 8f 3d 22 68 10 3e d8 39 2f bd
       -0.07379722 0.07009484 0.14102224 -0.042779773
0003a0 80 88 66 3d 85 f9 5b be f3 8e 48 3e ff 0f a0 be
       0.05628252 -0.21481903 0.19585781 -0.31262204
0003b0 91 d8 d5 3d 0a 1b ad 3b b3 1b 89 bd 66 e7 7c 3e
       0.104416974 0.0052827643 -0.06694736 0.24697646
0003c0 8f cb 20 3e 73 57 45 3f 04 81 dd 3d 69 83 d2 bd
       0.15702651 0.7708656 0.108156234 -0.10278971
0003d0 2f 1f dd be 17 62 2e bf f7 ed da be 30 12 83 3d
       -0.43187854 -0.68118423 -0.42759678 0.06399953
0003e0 ab 58 a5 be 5c b9 60 3f e8 2d ff 3d 9a f6 6e 3e
       -0.3229421 0.87782836 0.12459928 0.23336259
0003f0 3f c2 b1 3e 99 ed 94 be 54 60 8b 3d 9a 63 1b bf
       0.3471851 -0.29087523 0.068054825 -0.60698855

sequential_1/dense_6/MatMul f4 [1, 16]
000000 a5 82 88 3f da 87 db 3e 2b 81 65 bf a9 ce 9e 3e
       1.066487 0.42877084 -0.8965022 0.31017044
000010 2b 4e 53 be 39 50 d3 be 76 60 fb 3c c3 01 c6 bb
       -0.20635287 -0.41272143 0.030685645 -0.0060426905
000020 c0 e2 21 be 6a 17 86 3d 78 49 ea 3e 77 fb a9 3d
       -0.15809155 0.06547435 0.45759177 0.08299916
000030 c5 42 09 bf ad 1d c1 3c 27 2f 1f be ed 3a ff be
       -0.5361751 0.02357372 -0.15545331 -0.49849644
